DRL_113-2/DRL-Assignment-1/ddqn.pt (torch, 80682 bytes, 6 tensors)

feature.0.weight f4 [128, 17]
0	0xbf8601a9	-1.0469257
1	0x3e518cce	0.20463869
2	0x3cbafa13	0.022824323
3	0xbdec3412	-0.11533369
4	0xbd7f2e62	-0.062300093
5	0xbde519f1	-0.111865886
6	0xbf167807	-0.587769
7	0x3e0c0f89	0.13677801
8	0xbe6fcaa1	-0.2341714
9	0x3ed171d1	0.40907148
10	0x3f159868	0.5843568
11	0x3f61156a	0.879233
12	0xbf043b9f	-0.51653475
13	0xbf840dd6	-1.0316722
14	0x3edb6de5	0.4285728
15	0xbf0cf052	-0.550542
16	0xbe58627a	-0.21131316
17	0x3dd6807a	0.10473724
18	0x3c0b9f6b	0.008521895
19	0xbe867690	-0.2626233
20	0xbdf2826b	-0.118412815
21	0xbe91fa35	-0.28511205
22	0x3c8f3026	0.017479014
23	0x3f737634	0.9510224
24	0x3ecedb98	0.40401912
25	0x3dea61a0	0.11444402
26	0xbd0e598e	-0.034753375
27	0x3d4f5ae2	0.050623782
28	0xbe05a3b5	-0.1305073
29	0xbe0bc1c0	-0.13648129
30	0xbf3c1cf9	-0.7348171
31	0x3f26a527	0.6509575
32	0xbf1813e9	-0.5940538
33	0x3e91aecf	0.2845368
34	0x3f559a8c	0.83438945
35	0xbef30cbe	-0.4747066
36	0xbeab73b8	-0.33486724
37	0xbece062e	-0.4023909
38	0x3ce4f5f4	0.02794931
39	0xbf0d5305	-0.552048
40	0x3ea01d63	0.3127242
41	0xbe12e4ad	-0.14345045
42	0x3dddecb0	0.1083616
43	0xbec961ff	-0.39332578
44	0x3d2103e2	0.039310344
45	0xbee1e3ff	-0.4411926
46	0xbe994943	-0.29938707
47	0xbde537e5	-0.11192302
48	0x3d83a605	0.0642815
49	0xbf275aaf	-0.6537275
50	0xbd20ca99	-0.039255712
51	0x3deedea7	0.11663561
52	0xbe7b1cd0	-0.2452271
53	0x3ed8a1ea	0.4231103
54	0x3c9a43d8	0.018831179
55	0xbe25e276	-0.16199669
56	0x3f11b7ee	0.5692128
57	0xbe699495	-0.22810586
58	0x3e6cef29	0.23138107
59	0x3eba0a22	0.36335856
60	0x3efc3b7d	0.49264136
61	0x3e3d46b9	0.1848401
62	0x3f700f42	0.9377328
63	0x3f6574a3	0.896311
64	0x3dd4931b	0.10379621
65	0xbc7b590a	-0.015341053
66	0x3eca31ef	0.3949122
67	0xbf062bf3	-0.5241081
68	0x3eed953e	0.46402925
69	0x3e83b4a2	0.2572375
70	0x3e67856a	0.22609487
71	0xbeb63117	-0.35584328
72	0xbeb00d87	-0.3438532
73	0x3f1c631a	0.61088717
74	0xbe4c767b	-0.19967072
75	0x3f4c2fe3	0.7976057
76	0xbdc9a956	-0.098467514
77	0x3e25ba1a	0.16184273
78	0x3f3b2273	0.7309944
79	0xbd30a5b8	-0.04312679
80	0x3e653f02	0.22387317
81	0x3f176005	0.5913089
82	0x3f0102c5	0.5039485
83	0x3f602fcc	0.8757293
84	0xbf2d308e	-0.67652214
85	0x3e0eb1ed	0.13935061
86	0xbeddc0dc	-0.43311203
87	0xbe06ff08	-0.13183224
88	0xbaac77e7	-0.0013158292
89	0x3e9869f2	0.2976833
90	0x3eda8fb4	0.42687762
91	0x3f1f776c	0.622916
92	0xbf281eb6	-0.6567186
93	0x3e57c6df	0.21071957
94	0xbd847e76	-0.06469433
95	0x3e581f02	0.21105579
96	0xbe7b4237	-0.24536978
97	0x3f06fd48	0.52730227
98	0xbc830dd9	-0.015997814
99	0x3eb6fa74	0.35737956
100	0xbe8d461c	-0.27592552
101	0xb9f6e358	-0.0004709016
102	0xbe90defc	-0.28295124
103	0x3e351843	0.17685036
104	0x3e854a09	0.26033047
105	0x3e652fe3	0.22381549
106	0xbe9e5f0d	-0.30931893
107	0x3ede0550	0.43363428
108	0x3e09a8ca	0.13443294
109	0x3e9aaf13	0.30211696
110	0x3ec19c14	0.3781439
111	0x3f1a4bfa	0.6027218
112	0x3e2a77c8	0.16647255
113	0x3d8d3008	0.06893927
114	0xbe860bda	-0.26180917
115	0xbf6413bc	-0.8909261
116	0x38e50942	0.00010921295
117	0x3e0b11b9	0.1358098
118	0x3e9715da	0.2950886
119	0x3f0c0938	0.54701567
120	0x3f440434	0.76568913
121	0xbdbf75a2	-0.093486086
122	0x3dd363c6	0.10321765
123	0xbf50b866	-0.8153137
124	0xbe60f352	-0.2196782
125	0x3b24fdaa	0.002517561
126	0x3eff9434	0.49917758
127	0x3d2a0d95	0.04151686
128	0xbe9f6c59	-0.3113735
129	0x3e27f2c5	0.16401203
130	0x3de3818c	0.111086935
131	0x3e01e915	0.1268657
132	0xbd041d45	-0.032254476
133	0x3bd56a05	0.0065128827
134	0xbed295b9	-0.41129854
135	0x3e67b34f	0.22626995
136	0x3f5f2125	0.8715995
137	0x3f24951d	0.6429003
138	0x3e1171d7	0.14203583
139	0x3f55b7ef	0.83483785
140	0x3e31ea67	0.17374574
141	0xbf4687e9	-0.7755113
142	0xbf2ec9c6	-0.6827663
143	0x3e81ec59	0.2537563
144	0xbe3723bc	-0.17884725
145	0x3f4c6647	0.7984356
146	0xbe09a04b	-0.13440053
147	0x3f4446d2	0.76670563
148	0x3f580f91	0.8439875
149	0x3e806a29	0.25080994
150	0xbf155efd	-0.58348066
151	0xbe0ec3c4	-0.13941866
152	0xbe859801	-0.26092532
153	0xbe52b291	-0.2057593
154	0xbe00965b	-0.12557356
155	0x3dc4b3a8	0.09604579
156	0x3eb2630d	0.34841195
157	0xbeb9372f	-0.36174914
158	0x3eccaf66	0.39977568
159	0xbd692689	-0.056921516
160	0x3d825428	0.06363708
161	0xbf2fcb26	-0.68669355
162	0xbe41efa9	-0.1893908
163	0x3d576ec0	0.052595854
164	0xbe86e276	-0.2634465
165	0x3e8b8d85	0.27256408
166	0xbda35d56	-0.07976787
167	0x3dff71be	0.124728665
168	0x3cb8365f	0.022486864
169	0x3e7c6c58	0.24650705
170	0xbc821cf4	-0.015882947
171	0x3d267d80	0.04064703
172	0x3e09a40f	0.1344149
173	0xbeb0809c	-0.3447312
174	0xbe4461b0	-0.1917789
175	0x3e99a573	0.3000904
176	0xbdb763a7	-0.08954554
177	0xbeefc7da	-0.46832162
178	0xbf13874a	-0.5762831
179	0x3da1fa55	0.07909075
180	0xbf4d0d5d	-0.80098516
181	0x3ecb8841	0.3975239
182	0xbeafa44d	-0.3430504
183	0x3f282b73	0.656913
184	0xbe79b927	-0.24387036
185	0xbdb2d4d0	-0.08731997
186	0xbf4132f7	-0.7546839
187	0xbf176c14	-0.5914929
188	0x3eb32a7a	0.34993345
189	0x3e8b8b30	0.2725463
190	0xbf1f113c	-0.6213567
191	0xbeb78024	-0.3583995
192	0xbc10eaa2	-0.008845003
193	0xbf3b5fcf	-0.7319307
194	0xbd184bba	-0.037181593
195	0x3ed7721b	0.42079243
196	0xbe5d4c0d	-0.21611042
197	0x3efff20c	0.49989355
198	0x3d46b441	0.048511747
199	0x3e59f9d0	0.21286702
200	0xbe12d4ac	-0.1433894
201	0xbeb7bb78	-0.35885215
202	0xbec550dc	-0.38538253
203	0xbe2bbb9a	-0.16770783
204	0x3e5f9a67	0.21836244
205	0x3c31df39	0.010856443
206	0xbf02bf1f	-0.5107288
207	0x3e9c8e73	0.3057743
208	0xbe11bbff	-0.14231871
209	0xbd20ca6b	-0.03925554
210	0xbe788d63	-0.24272685
211	0xbe75516b	-0.2395684
212	0x3f100b99	0.56267697
213	0x3e413636	0.18868336
214	0xbd08421c	-0.03326617
215	0x3f22d0bf	0.6359977
216	0x3f51dba4	0.8197577
217	0x3e737992	0.23776844
218	0x3e4a660f	0.19765495
219	0xbc2ba319	-0.010475897
220	0xbf1fd385	-0.6243213
221	0x3ef20196	0.47266835
222	0xbeaa005e	-0.33203405
223	0xbe3d6913	-0.18497114
224	0xbdfb1e05	-0.12261585
225	0x3e27ca9c	0.16385883
226	0xbc8c35f0	-0.017115563
227	0xbed746db	-0.42046246
228	0x3c3dcdec	0.01158474
229	0x3f14ef14	0.58177304
230	0x3e208a33	0.15677719
231	0xbe832dce	-0.25620884
232	0xbe06c621	-0.13161518
233	0xbefdc46c	-0.4956392
234	0xbe8c0ef0	-0.27355146
235	0x3d923cb6	0.07140486
236	0x3f24312a	0.6413752
237	0x3e72a311	0.23695017
238	0x3e81a84b	0.2532371
239	0x3ec822e4	0.3908912
240	0x3f470840	0.77746964
241	0xbe4adeb6	-0.1981152
242	0x3de11245	0.10989813
243	0xbdbe9374	-0.09305468
244	0x3f4e6a53	0.8063099
245	0xbe7e96f6	-0.24862275
246	0x3ee0e5a9	0.43925217
247	0xbf2bd4c8	-0.67121553
248	0xbe20eff9	-0.15716542
249	0xbe30a673	-0.17250995
250	0xbdba68c8	-0.09102017
251	0xbea0a881	-0.31378558
252	0xbbe80a15	-0.00708128
253	0xbecfb0ed	-0.4056467
254	0xbf0cf0aa	-0.55054724
255	0xbe34f525	-0.1767164

feature.0.bias f4 [128]
0	0x3e943a2d	0.28950635
1	0x3e443470	0.19160628
2	0x00000000	0.0
3	0x3dd1f49a	0.10251732
4	0x3e23358b	0.15938394
5	0x3dbdaf27	0.09261923
6	0x3e14ef90	0.14544511
7	0x3cd01ef2	0.02540538
8	0x3de7add3	0.11312451
9	0x00000000	0.0
10	0x3d92808b	0.07153424
11	0x3de3113f	0.11087274
12	0x3da2031b	0.079107486
13	0xbe043d41	-0.12913992
14	0x3e1517c9	0.14559855
15	0x3df8c883	0.121476196
16	0x3e2480f5	0.16064818
17	0x3e680f7a	0.22662154
18	0x3ddd7cba	0.10814805
19	0x3dd55ef2	0.104185
20	0x3e05dfeb	0.13073699
21	0x3df0aec2	0.117520824
22	0x3e1f6091	0.15564181
23	0x3d817c2d	0.06322513
24	0x3bff9df9	0.007800814
25	0x3de4c072	0.111695185
26	0x3e6dea72	0.23233965
27	0x3d9f6873	0.07783594
28	0x3dbaa54f	0.09113561
29	0x3dd51c4f	0.1040579
30	0x3e21f75d	0.15817018
31	0x3db25282	0.08707143
32	0x3d121eb9	0.03567383
33	0x3caf2d7d	0.021383995
34	0x3deeed10	0.1166631
35	0x3da8d113	0.08243003
36	0xbc44c72c	-0.012010377
37	0x3d14fd1e	0.036374204
38	0xbd47c9b0	-0.04877633
39	0x3e7dd126	0.24786815
40	0x3e418d56	0.18901572
41	0xbd92117e	-0.071322426
42	0x3dc5ef22	0.096647516
43	0x3d8a0e0a	0.06740959
44	0x3e2c42fc	0.16822428
45	0x3c378da3	0.011203202
46	0x3d9da20b	0.07696923
47	0x3e063823	0.13107352
48	0x3e12bf73	0.14330845
49	0xbd43d102	-0.047806747
50	0xbc982673	-0.018573022
51	0x3dc4871e	0.09596084
52	0x3ddd7447	0.10813194
53	0x3cfa8b8b	0.030584117
54	0x3d95a299	0.07306404
55	0x3ddaeac5	0.1068931
56	0x00000000	0.0
57	0x3dff9774	0.12480059
58	0x3d9d7caf	0.07689797
59	0x3e5b7ccf	0.2143433
60	0x3df33e36	0.118771
61	0x3ca31e32	0.01991186
62	0x3ce469b2	0.02788243
63	0x3da65525	0.08121709
64	0x3e0aa1f6	0.13538346
65	0x3deee584	0.116648704
66	0x00000000	0.0
67	0x3d90f7f5	0.07078544
68	0x3d994c6c	0.074852794
69	0xbd0765dd	-0.03305613
70	0x3e214ca9	0.157519
71	0x3e0397c0	0.12850857
72	0x3dac9d02	0.08428384
73	0x3c3a8383	0.011383894
74	0xbd79dec6	-0.06100347
75	0xbb7db9e5	-0.0038715538
76	0x3dcd0ea0	0.10012555
77	0x3d9b3ace	0.075795755
78	0x3e2a0cc2	0.16606429
79	0x3db52625	0.08845166
80	0x3e26beb4	0.16283685
81	0x3e1c7e18	0.15282476
82	0xbd0e57f6	-0.034751855
83	0x3dc02f3a	0.09384008
84	0x3e1ae870	0.1512773
85	0x3d5dbee4	0.054137126
86	0x3dfd4f36	0.12368624
87	0x3e9e6d36	0.30942696
88	0x3d8067ad	0.062697746
89	0x3dca66e5	0.09882907
90	0x3e885392	0.2662626
91	0x3d2e69a7	0.042581227
92	0x3e7b5db7	0.24547468
93	0x3dbebb23	0.09313037
94	0x3c0cb48a	0.008587966
95	0x3da8f85b	0.08250495
96	0x3e243c72	0.16038683
97	0x3dbd68d9	0.09248514
98	0x3da0adcc	0.07845649
99	0x00000000	0.0
100	0x3d5415e6	0.051778696
101	0x3d931f29	0.07183678
102	0x3d6444e1	0.05572975
103	0x3dd2ecf7	0.10299104
104	0x3d89274e	0.0669695
105	0x3dc4357e	0.09580515
106	0x3e065bea	0.13121
107	0x3c8471f1	0.016167613
108	0x3e006c7f	0.12541388
109	0xbda07807	-0.078353934
110	0x3c8fd822	0.017559115
111	0x3cd26ce2	0.025686685
112	0x3e167116	0.14691576
113	0x3da00e76	0.07815258
114	0x3d8772a9	0.066136666
115	0x3df2f60e	0.118633375
116	0x3e27b4c5	0.16377552
117	0x3d817d92	0.06322779
118	0x3dac9ee3	0.08428743
119	0x00000000	0.0
120	0x3d87e3a3	0.06635215
121	0x3e7fb1c2	0.24970153
122	0x3b4a4687	0.0030864791
123	0x3d887bde	0.06664251
124	0xbc8e50ff	-0.017372606
125	0x3cc15105	0.023598203
126	0x3c52acc6	0.012858575
127	0x3e05f0f3	0.13080196

feature.2.weight f4 [128, 128]
0	0xbc3fd112	-0.011707561
1	0x3ebdc8d6	0.37067288
2	0x3c95a41d	0.018266732
3	0x3dd1f8a2	0.10252501
4	0xbe0c096f	-0.13675474
5	0x3e185196	0.14874873
6	0x3eb8c9ad	0.36091366
7	0x3e38e50f	0.18056129
8	0x3d27dba5	0.040980954
9	0x3e14de4b	0.14537923
10	0x3e05dbf2	0.13072184
11	0x3d5905d8	0.05298409
12	0xbd8809e3	-0.06642511
13	0xbe539e0c	-0.20665759
14	0x3e30a088	0.17248738
15	0x3d1d261e	0.03836643
16	0x3da96bd8	0.08272523
17	0x3ecf305b	0.4046658
18	0xbd81381b	-0.063095294
19	0x3e5c4cab	0.21513622
20	0x3e8753f5	0.26431242
21	0xbe41a05e	-0.18908831
22	0x3e5d0885	0.21585281
23	0xbda9e28e	-0.08295165
24	0xbefefe15	-0.49803224
25	0xbd081c00	-0.033229828
26	0x3ec5dd67	0.3864548
27	0x3e930d58	0.28721118
28	0xbe3a35b2	-0.18184546
29	0x3ec6dc68	0.38840032
30	0xbf1705d3	-0.5899326
31	0x3e706852	0.23477295
32	0xbdbef4b3	-0.093240164
33	0xbeb28e51	-0.34874204
34	0x3e4196b9	0.18905152
35	0x3db34b3a	0.08754583
36	0x3de64f71	0.11245621
37	0xbdf32284	-0.11871818
38	0xbe0eae47	-0.13933669
39	0x3e05cd15	0.13066514
40	0x3e21f062	0.15814355
41	0xbe038513	-0.12843733
42	0x3e857e22	0.26072794
43	0xbcf78e48	-0.030219212
44	0xbdd383c2	-0.10327865
45	0x3da35275	0.07974712
46	0x3e2608ad	0.16214247
47	0x3e5e6f79	0.21722211
48	0x3e46a44f	0.19398616
49	0x3e50db47	0.20396148
50	0xbc18343d	-0.009289798
51	0x3e79b660	0.24385977
52	0x3d919b21	0.071096666
53	0xbd805239	-0.06265683
54	0xbe96a0b6	-0.29419488
55	0xbae65979	-0.0017574272
56	0xbcac49ab	-0.021031221
57	0x3e7f3dab	0.24925868
58	0x3e585bdd	0.21128793
59	0x3e17ae38	0.14812553
60	0x3df3d7aa	0.11906369
61	0x3d8ea5a0	0.06965184
62	0xbdc647c4	-0.09681657
63	0x3e1a77fb	0.15084831
64	0x3ce39b51	0.027784022
65	0xbc0b0e3b	-0.0084872795
66	0x3e29f563	0.16597514
67	0xbc30ec2f	-0.010798498
68	0xbd8cf812	-0.06883253
69	0x3d2d6453	0.042332005
70	0x3ee7739e	0.45205396
71	0x3e2dda60	0.16977835
72	0xbd906298	-0.07050055
73	0x3e22c1f1	0.15894295
74	0xbea5dfa4	-0.32397187
75	0xbd9f6a48	-0.077839434
76	0xbe228857	-0.15872322
77	0xbe0c5e0a	-0.13707748
78	0x3e6cf38b	0.2313978
79	0xbe7ea7a2	-0.24868634
80	0xbcdda402	-0.027055744
81	0xbe4184b3	-0.18898277
82	0x3d956838	0.07295269
83	0x3d721134	0.059098437
84	0x3e6225c5	0.2208472
85	0x3bdaac8d	0.0066734017
86	0x3e6ba39f	0.23011635
87	0x3ebdfd24	0.37107193
88	0xbeaed1c1	-0.34144405
89	0x3e6c0185	0.23047455
90	0x3e668943	0.22513299
91	0xbe8a92a2	-0.27064997
92	0x3ec8ddd8	0.39231753
93	0xbdc6241f	-0.09674858
94	0x3da65bf2	0.08123006
95	0x3cf7027d	0.030152554
96	0x3e0bdf1b	0.13659327
97	0x3edea5f0	0.43485975
98	0xbdad8835	-0.08473245
99	0xbc9c153a	-0.01905309
100	0xbb3424a7	-0.0027487667
101	0x3e3b1a36	0.18271717
102	0x3d7d941c	0.061908826
103	0x3e19426a	0.14966741
104	0x3d6772ce	0.05650597
105	0x3e18b4a4	0.14912659
106	0x3d8c92e4	0.06863955
107	0x3c6ac642	0.014329495
108	0x3ef74887	0.4829752
109	0xbe49320d	-0.19647999
110	0xbeb4f40b	-0.3534244
111	0x3d5498ee	0.051903658
112	0xbe94a15c	-0.29029357
113	0xbe4f50f4	-0.20245725
114	0xbd0c6f37	-0.03428575
115	0x3dcfed76	0.10152714
116	0x3e99f532	0.30069882
117	0xbdb75bb8	-0.08953041
118	0x3e164634	0.14675218
119	0xbc00a70b	-0.007852326
120	0x3cfed147	0.03110565
121	0x3e401f0a	0.1876184
122	0xbd9fd655	-0.078045525
123	0xbec4f111	-0.3846517
124	0x3d9b405b	0.07580634
125	0x3d645970	0.055749357
126	0x3e169a81	0.14707376
127	0x3c6c3c61	0.014418692
128	0x3d07e6ed	0.033179212
129	0xbdc88574	-0.09791079
130	0xbaf09556	-0.0018355052
131	0x3dbc18ff	0.09184455
132	0xbbcd1002	-0.006258012
133	0xbde69880	-0.11259556
134	0xba9c264b	-0.0011913268
135	0xbccb4448	-0.024812832
136	0xbdde102f	-0.108429305
137	0x3e07e6fa	0.13271704
138	0x3e109d05	0.14122398
139	0x3d867143	0.06564572
140	0xbde961c5	-0.11395601
141	0x3e1a444c	0.15065116
142	0xbb2a5916	-0.002599304
143	0x3cb21b67	0.021741582
144	0x3e8d132b	0.27553686
145	0x3dfc28a2	0.123124376
146	0xbd5e7f97	-0.054320898
147	0xbec0972c	-0.37615335
148	0xbee0ef37	-0.43932506
149	0x3e980215	0.29689088
150	0x3e57a1bf	0.21057795
151	0x3eaa089f	0.33209702
152	0x3ce559da	0.027996946
153	0x3e543c2d	0.2072608
154	0xbd1ed1fd	-0.03877448
155	0xbe1178c5	-0.14206226
156	0x3d438b5b	0.04774032
157	0x3e07baee	0.13254902
158	0x3e363f80	0.17797661
159	0x3e0b5b4d	0.13609047
160	0x3e5bfbbc	0.21482748
161	0x3edbff6b	0.42968306
162	0xbcb35454	-0.021890797
163	0xbdfc2661	-0.12312008
164	0x3e8eab15	0.278649
165	0xbe67fed6	-0.22655806
166	0x3e1f33a0	0.15547037
167	0x3e065f94	0.13122398
168	0x3da3b753	0.07993951
169	0x3edf2827	0.4358532
170	0xbe2c1494	-0.16804725
171	0x3e230b6f	0.1592233
172	0x3f0c6075	0.5483468
173	0x3e2850cf	0.16437076
174	0xbdfcc910	-0.12343037
175	0xbe473bf1	-0.1945646
176	0x3cf4caf1	0.029881926
177	0xbde99e2a	-0.114071205
178	0xbdb69563	-0.08915212
179	0x3e93164e	0.28727955
180	0x3dc44553	0.09583535
181	0x3d8431df	0.06454825
182	0xbe333626	-0.17501125
183	0x3e2e564e	0.1702511
184	0x3d3ec606	0.04657557
185	0xba4415c2	-0.0007480049
186	0x3d570c33	0.05250187
187	0x3dba01ce	0.090823755
188	0x3e46d62c	0.19417638
189	0x3e6b6bc9	0.22990336
190	0x3de2759c	0.110575885
191	0x3d6f4367	0.05841389
192	0x3d92dd0d	0.07171068
193	0xbddbce6a	-0.1073273
194	0xbd67fade	-0.05663573
195	0xbe925108	-0.28577447
196	0x3e8d7cb2	0.27634197
197	0x3e8d0dd1	0.27549604
198	0x3f006c8e	0.5016564
199	0x3e030c12	0.12797573
200	0xbc9a8e86	-0.018866789
201	0x3d3c0e16	0.04591187
202	0xbd533b8d	-0.051570464
203	0x3e8fbe46	0.28074855
204	0xbe1075c6	-0.14107427
205	0xbd20b192	-0.039231844
206	0x3e07e27d	0.13269992
207	0x3e6dce8c	0.23223323
208	0x3e72a5c2	0.23696044
209	0x3ec28b2e	0.3799681
210	0x3cf6d541	0.030130984
211	0xbdc06a4f	-0.09395277
212	0xbdabe8fc	-0.083940476
213	0xbdd1bd90	-0.10241234
214	0x3d78d816	0.06075295
215	0x3d603a99	0.054743383
216	0x3e14c1d4	0.14527065
217	0xbbdf6fc8	-0.0068187453
218	0x3e4be616	0.1991199
219	0xbcc3715a	-0.023857761
220	0x3e662022	0.22473195
221	0xbd9a8cb3	-0.075463675
222	0xbd03ff8f	-0.03222614
223	0x3e476f9d	0.19476171
224	0xbe2d7e22	-0.16942647
225	0xbf0030a5	-0.50074226
226	0x3deeb9c5	0.116565265
227	0xbb43b443	-0.0029862083
228	0x3e98b79b	0.2982758
229	0x3ec9d90b	0.39423403
230	0x3e79b422	0.24385121
231	0xbec335bf	-0.38126943
232	0xbd588816	-0.052864157
233	0xbdef39c5	-0.116809405
234	0xbe5d62d0	-0.21619725
235	0x3ec71955	0.38886514
236	0xbe4ca7f1	-0.1998594
237	0x3eb79fc1	0.3586407
238	0x3d803fad	0.06262145
239	0x3e745282	0.23859599
240	0xbe519118	-0.20465505
241	0x3e93f75e	0.28899664
242	0x3de3389a	0.1109478
243	0x3d9d8834	0.07691994
244	0x3e978c78	0.29599357
245	0x3e49b702	0.19698718
246	0x3d584861	0.0528034
247	0x3e4b518c	0.19855326
248	0x3e7c620d	0.24646778
249	0x3e29d083	0.16583447
250	0xbd58768a	-0.052847423
251	0x3d0e260f	0.034704264
252	0x3e917394	0.28408492
253	0x3e583e5a	0.21117535
254	0x3d8ecb09	0.0697232
255	0xbe32c4ac	-0.17457837

feature.2.bias f4 [128]
0	0x3dc40e9c	0.09573099
1	0x3d56a52b	0.05240361
2	0xbc240343	-0.010010543
3	0x3d0d1e22	0.034452565
4	0x3d48da65	0.049036402
5	0x3c1c2d3e	0.009532271
6	0x3dd568f0	0.10420406
7	0x3d1ae4e5	0.037815947
8	0xbc18a26a	-0.009316066
9	0x3cbbe175	0.022934655
10	0x3d8115d2	0.0630299
11	0x3dd85572	0.105631724
12	0x3d20cf21	0.039260034
13	0x3dc49593	0.095988415
14	0x3d019f7b	0.031646233
15	0x3da1ef36	0.07906954
16	0xbc2b7940	-0.01046592
17	0xbc3faa54	-0.011698324
18	0xbbcadfdf	-0.0061912383
19	0x3d506bfe	0.05088424
20	0x3d576df0	0.05259508
21	0x00000000	0.0
22	0x3d4e4280	0.050356388
23	0x3d3e5291	0.04646546
24	0x3c9cd411	0.01914409
25	0x3d600cc2	0.054699667
26	0x3e01fee4	0.1269489
27	0xbbb527a2	-0.0055284062
28	0xbcfdeefc	-0.030997746
29	0xbce1e3ed	-0.027574504
30	0x3d7a6cdd	0.061138976
31	0x3da46a6a	0.08028109
32	0x3cd514e9	0.026010947
33	0x3da42e77	0.08016675
34	0x3d94b875	0.07261745
35	0x00000000	0.0
36	0x00000000	0.0
37	0x3cc63e66	0.024199676
38	0x3cfd31dc	0.030907564
39	0xbba3df30	-0.0050009713
40	0xbc700404	-0.014649395
41	0x3cbd528a	0.023110647
42	0x3db56380	0.08856869
43	0x3df6a22a	0.12042649
44	0x3d1aeb10	0.03782183
45	0xba6a9d2f	-0.0008949814
46	0xbc8b4ace	-0.017003443
47	0x3ced6e68	0.02898331
48	0xbd89b8d3	-0.067247055
49	0xbb94c4d0	-0.0045400634
50	0x3d8d29ab	0.06892713
51	0x00000000	0.0
52	0x3d3653fb	0.044513684
53	0xbd84e3a0	-0.064887285
54	0xbcd230a7	-0.025657965
55	0xbca469ce	-0.020069983
56	0x3b214807	0.0024609582
57	0x3e00dbf2	0.12583902
58	0x00000000	0.0
59	0x3be3ccc7	0.0069519016
60	0x3d394dbe	0.045240156
61	0x3d9581f1	0.07300175
62	0x3d21ac47	0.039470937
63	0xbbaccf31	-0.0052737226
64	0x3d5b608f	0.053558882
65	0xbcf61b1f	-0.03004223
66	0x3d9a43e3	0.075324796
67	0x3cee14c6	0.02906264
68	0x3d8bf04e	0.06832944
69	0x00000000	0.0
70	0xbbbffd11	-0.0058590253
71	0x3d9ef6f5	0.07761947
72	0x3ca02d9f	0.019553004
73	0x3dd7ec1e	0.10543083
74	0x3bd62262	0.0065348605
75	0x3d148ead	0.03626888
76	0x00000000	0.0
77	0x3d5dba43	0.05413271
78	0x3d8b7936	0.068102285
79	0x3ceccdf4	0.0289068
80	0x3d70a6d6	0.058752857
81	0x3d7eb18b	0.062181037
82	0x3daa4345	0.08313612
83	0x3d721d79	0.05911014
84	0xbb1de8c1	-0.002409503
85	0x3d197eee	0.037474565
86	0xbc074f7b	-0.008258696
87	0x3d58a0f4	0.05288787
88	0x3d65adfd	0.05607413
89	0x3dfe9dc1	0.12432433
90	0x3d01e30f	0.03171068
91	0x3c409703	0.011754754
92	0x3d0a38f5	0.033745725
93	0x3d061251	0.03273231
94	0x3b810ffc	0.003938673
95	0x3d786161	0.060639743
96	0x00000000	0.0
97	0x3c8bd689	0.017070072
98	0x3d7e6243	0.06210543
99	0x3d8bb185	0.068209685
100	0xba4fd727	-0.00079284835
101	0x3d4a580c	0.049400374
102	0x3d93feed	0.072263576
103	0x00000000	0.0
104	0xbc2034fa	-0.009778256
105	0x3c9c0e4f	0.019049792
106	0xbcd881bf	-0.026429055
107	0x3dc8b5e3	0.09800317
108	0x00000000	0.0
109	0x3d144fde	0.03620898
110	0x3df1747c	0.11789796
111	0x3cc830f5	0.024437407
112	0x3d17060c	0.036871
113	0x3cca4a9a	0.024693776
114	0x3d2ef9aa	0.042718567
115	0xbc62166f	-0.013799294
116	0xbb2666c8	-0.0025390852
117	0x3d0d94e2	0.034565814
118	0x3d14cdbd	0.03632902
119	0xbca63dd9	-0.020293163
120	0xbb8203af	-0.0039677243
121	0x3d3c2f73	0.04594369
122	0x3c9823b5	0.018571714
123	0xbc1ee784	-0.009698752
124	0x3d4eb344	0.05046393
125	0x3ca0fc97	0.019651694
126	0x3db904ac	0.09034094
127	0xbb937f97	-0.004501294

feature.4.weight f4 [6, 128]
0	0x3edf02ea	0.4355691
1	0xbed7bc28	-0.4213574
2	0x3d8c2992	0.068438664
3	0x3e0d57d5	0.13803037
4	0xbd7b1c25	-0.061306138
5	0xbe2d7c41	-0.1694193
6	0x3e09ba63	0.13450007
7	0xbbe4206a	-0.006961872
8	0xbdffa11f	-0.12481903
9	0xbdeffbc4	-0.11717942
10	0xbe95b653	-0.29240665
11	0x3e85e07c	0.2614783
12	0x3c6844eb	0.014176588
13	0x3e28197a	0.16415969
14	0xbc8b3572	-0.016993258
15	0x3e95ee13	0.292832
16	0x3e852a05	0.2600862
17	0x3d85960d	0.065227605
18	0xbe836b03	-0.2566758
19	0xbbd5c8fd	-0.006524204
20	0x3dd8416d	0.10559354
21	0x3d8665ae	0.065623626
22	0xbe66e637	-0.22548757
23	0xbe6f4099	-0.23364486
24	0xbe5ee44c	-0.21766776
25	0x3e821f21	0.25414374
26	0x3eaf50b4	0.3424126
27	0x3ccc4196	0.024933618
28	0xbe8d8451	-0.27640012
29	0x3c6cf8e5	0.014463638
30	0xbe3bed8f	-0.1835234
31	0x3e119f8c	0.14221019
32	0x3dc387ee	0.09547411
33	0x3e8bf8e8	0.27338338
34	0x3ee0bb56	0.43892926
35	0xbe2186a9	-0.15774025
36	0x3e01757b	0.12642471
37	0xbe1995b4	-0.14998513
38	0xbed6ffde	-0.41992086
39	0xbe155232	-0.14582136
40	0xbe708478	-0.23488033
41	0xbe8275f7	-0.25480625
42	0x3f34454b	0.7041823
43	0x3ec1d6c0	0.37859154
44	0xbbc17e31	-0.0059049358
45	0xbe8a26c4	-0.269827
46	0xbd4cd7d5	-0.05001052
47	0xbd83124c	-0.06399974
48	0xbe89fccc	-0.2695068
49	0x3dcd2905	0.100175895
50	0x3ea4abae	0.3216223
51	0x3d863730	0.06553495
52	0xbe808c84	-0.25107205
53	0x3e0923ed	0.13392611
54	0x3c934944	0.017979272
55	0x3e756ad3	0.23966531
56	0xbe46c0b5	-0.1940945
57	0x3e6a9d90	0.22911668
58	0xbda21324	-0.07913807
59	0xbe0fe3a4	-0.14051682
60	0xbe858b9d	-0.2608308
61	0xbe330db5	-0.17485698
62	0xbe944391	-0.289578
63	0x3d8eda3e	0.0697522
64	0xbe3a5341	-0.18195821
65	0x396c9f66	0.00022566094
66	0xbe9bf86b	-0.30462965
67	0xbd190d44	-0.037366167
68	0xbe97c177	-0.2963979
69	0x3e37f73b	0.17965405
70	0xbd8e58d4	-0.06950536
71	0x3e9d1327	0.30678675
72	0xbdb8bb75	-0.090201296
73	0x3eabddf1	0.33567765
74	0xbe776549	-0.24159731
75	0x3e5edb13	0.21763258
76	0x3d9c89d4	0.07643476
77	0x3e6c8596	0.23097834
78	0x3edf8f51	0.4366403
79	0xbea3b3d4	-0.31973135
80	0xbcc7d1f3	-0.024392104
81	0x3ea241e6	0.31690902
82	0xbe9cd12f	-0.30628344
83	0xbe00d45a	-0.12581006
84	0x3cff5893	0.031170165
85	0x3e0599aa	0.130469
86	0x3e746fe5	0.2387081
87	0x3da6b490	0.08139908
88	0x3d240b07	0.04004958
89	0x3e97a823	0.29620466
90	0xbe0a462b	-0.1350333
91	0xbe8f7087	-0.2801554
92	0x3e66a2e7	0.2252308
93	0xbeaccc87	-0.33749792
94	0xbe1b9e8b	-0.15197198
95	0x3d8d56da	0.06901331
96	0xbd86968b	-0.065716825
97	0xbd98a903	-0.074541114
98	0xbe067026	-0.13128719
99	0xbd138d78	-0.036023587
100	0x3dd87c1d	0.10570548
101	0x3e408e8b	0.18804376
102	0xbe21c9ed	-0.15799685
103	0xbe08ad83	-0.1334744
104	0xbdc62d82	-0.09676649
105	0xbc82ef96	-0.015983384
106	0xbe52a947	-0.20572387
107	0x3ea8a28d	0.32936516
108	0x3e637554	0.22212726
109	0xbd8c1f9d	-0.06841967
110	0x3e874c9c	0.26425636
111	0x3e975bc0	0.29562187
112	0xbe9a7440	-0.30166817
113	0x3d08ca99	0.033396337
114	0x3e6ff495	0.23433144
115	0x3ebb993a	0.3664034
116	0x3cd27e34	0.025694944
117	0x3e13c77f	0.1443157
118	0x3e610597	0.21974789
119	0x3e4e4e15	0.20146973
120	0x3d137e7d	0.0360093
121	0xbe5967cf	-0.21231006
122	0xbdf7408c	-0.12072858
123	0x3cd549cb	0.026036164
124	0xbe14459b	-0.14479677
125	0xbe585fb5	-0.2113026
126	0xbe8ff319	-0.28115156
127	0x3dc7d62d	0.09757648
128	0xbeae2d5e	-0.34018987
129	0x3e925275	0.28578535
130	0x3d9b643e	0.07587479
131	0x3e2a9a44	0.1666041
132	0xbe6a4248	-0.22876847
133	0xbec6310e	-0.387093
134	0x3f08bb07	0.5341038
135	0x3ef1cc6e	0.4722628
136	0xbe6f88a9	-0.23391975
137	0xbe93a812	-0.28839165
138	0xbdbde456	-0.09272067
139	0x3d334264	0.043764487
140	0x3e1a3b3a	0.15061656
141	0x3e9f1fd4	0.3107897
142	0xbd1369b1	-0.035989467
143	0x3efd0ddc	0.49424636
144	0xbe37dee0	-0.17956114
145	0x3c045b33	0.008078384
146	0x3ed9f29b	0.42567906
147	0x3e122cbf	0.14274882
148	0xbe013ed9	-0.1262163
149	0x3dec16b3	0.11527767
150	0xbe49a7e5	-0.19692953
151	0xbd188a12	-0.03724105
152	0x3d94cf10	0.072660565
153	0xbd323a8c	-0.043512866
154	0x3e766a07	0.24063884
155	0xbe0d5684	-0.13802534
156	0xbeb16f2d	-0.34655133
157	0x3db18d4f	0.086695306
158	0xbda3ceec	-0.079984516
159	0x3e68b593	0.22725515
160	0xbcf7469a	-0.030185033
161	0x3ea05b9c	0.31319892
162	0x3e4e6050	0.20153928
163	0x3de00510	0.109384656
164	0xbd93e408	-0.07221228
165	0xbe71d567	-0.23616563
166	0xbe96a63d	-0.29423705
167	0x3e33a1c1	0.17542173
168	0x3dfbdc5d	0.1229789
169	0xbe7edcee	-0.24888965
170	0xbe03784e	-0.12838861
171	0x3e829ead	0.25511685
172	0xbdb5de63	-0.088803075
173	0xbe8c0199	-0.2734497
174	0xbd3083f4	-0.04309459
175	0xbe7c2555	-0.24623616
176	0xbeb4751d	-0.352456
177	0xbce42ee8	-0.027854398
178	0x3ee37792	0.44427162
179	0x3da11134	0.07864609
180	0xbe959878	-0.29217887
181	0xbf0ac6f0	-0.54209805
182	0xbe672710	-0.22573495
183	0xbe5e229c	-0.2169289
184	0x3d6543d1	0.055972878
185	0x3ebd94c5	0.37027565
186	0xbc90c107	-0.017670168
187	0x3e8e8d23	0.27842054
188	0xbe203e90	-0.15648866
189	0xbef55b51	-0.4792123
190	0x3d27c281	0.040956978
191	0x3e40ecc8	0.18840325
192	0x3e78be74	0.24291402
193	0x3c3e905d	0.011631099
194	0xbdaa0249	-0.08301217
195	0xbe9d556c	-0.30729234
196	0xbc015075	-0.007892718
197	0xbd957afa	-0.072988465
198	0x3e6c3ba4	0.23069626
199	0x3ea0589a	0.31317598
200	0x3e5d7eaf	0.21630357
201	0x3ecd5436	0.4010331
202	0xbe37087f	-0.17874335
203	0x3d794510	0.06085688
204	0x3d9ed761	0.07755924
205	0xbea668f5	-0.3250195
206	0x3ea5f087	0.3241007
207	0xbe1630d2	-0.14667061
208	0x3e268334	0.16260988
209	0x3e089688	0.13338673
210	0xbe4b0720	-0.19826937
211	0x3da655a8	0.081218064
212	0x3e251f94	0.16125327
213	0x3ea85647	0.32878324
214	0xbda5c700	-0.08094597
215	0xbdb837b2	-0.08994998
216	0x3e0abd82	0.13548854
217	0x3f036b8b	0.5133597
218	0xbe8e79c4	-0.27827275
219	0xbdc286ca	-0.09498365
220	0x3e83d560	0.2574873
221	0xbc246e70	-0.010036096
222	0xbe114bed	-0.1418912
223	0xbd553e95	-0.052061636
224	0xbd2947c7	-0.041328218
225	0x3d470e0f	0.04859739
226	0xbde66eae	-0.11251579
227	0xbb882bc2	-0.004155607
228	0x3e5df2db	0.21674673
229	0x3d5eb855	0.05437501
230	0xbe14ffee	-0.14550754
231	0x3c9e0bad	0.019292677
232	0xbe9ffb04	-0.31246197
233	0x3ca76378	0.020433173
234	0x3e0f4c06	0.13993844
235	0x3ebba0e5	0.3664619
236	0x3df90cf8	0.12160677
237	0x3df19a37	0.11796992
238	0xbf304487	-0.68854564
239	0x3dd58d0f	0.104272954
240	0xbe173669	-0.1476685
241	0xbe1fabe1	-0.1559291
242	0xbd06b18a	-0.03288416
243	0x3e37f602	0.17964938
244	0x3e4f1043	0.20221047
245	0xbc9990c1	-0.018745782
246	0x3ec4636c	0.38357103
247	0x3e856012	0.26049858
248	0xbe2ae1b8	-0.16687667
249	0xbde58298	-0.112065494
250	0xbe41b373	-0.1891611
251	0xbca61e13	-0.020278012
252	0xbea930d1	-0.33045056
253	0x3d5fa0b3	0.054596614
254	0xbe82415d	-0.25440493
255	0xbe7e49c2	-0.24832824

feature.4.bias f4 [6]
0	0xbc49f018	-0.012325309
1	0x3d72d30b	0.059283298
2	0x3ca09ff7	0.019607527
3	0x3d057287	0.032579925
4	0xbcf2b430	-0.029626936
5	0xbd03dcab	-0.032192867
