DRL_113-2/DRL-Assignment-1/dqn.pt (torch, 78112 bytes, 6 tensors)

network.0.weight f4 [128, 12]
0	0xbe5d16cc	-0.21590728
1	0xbda2b935	-0.07945482
2	0x3fc88342	1.5665057
3	0xbebce24f	-0.3689141
4	0x3f2fb2a9	0.6863199
5	0xbe2fecf8	-0.1718024
6	0xbde18717	-0.110120945
7	0xbeeddb39	-0.46456316
8	0xbf2671b6	-0.6501726
9	0x3e3e6457	0.18592964
10	0xbe3234a7	-0.17402898
11	0xbdabab2d	-0.083822586
12	0xbe28ba25	-0.16477259
13	0x3ec0892a	0.37604648
14	0x3eac5d76	0.33665055
15	0xbde7cb9b	-0.113181315
16	0x3e0ad943	0.13559441
17	0xbe08aa52	-0.13346222
18	0x3efe43f0	0.49661207
19	0x3e5e2ccd	0.21696778
20	0x3f050cdf	0.51972765
21	0x3ef1e8a9	0.47247818
22	0xbeb63940	-0.35590553
23	0xbdca84b3	-0.098885916
24	0x3f444eb1	0.76682574
25	0x3e3c1b14	0.18369704
26	0x3ec69a03	0.38789377
27	0x3e89fe21	0.26951697
28	0xbeaff867	-0.34369203
29	0xbdecdf7a	-0.11566062
30	0x3eb6344d	0.35586777
31	0xbe0f216e	-0.13977596
32	0xbeab1863	-0.33417043
33	0xbda014ad	-0.078164436
34	0xbdb5210e	-0.08844195
35	0x3d017057	0.031601276
36	0x3f2c7700	0.6736908
37	0x3e1109d2	0.14163902
38	0xbe7cc9a6	-0.24686298
39	0x3f825f46	1.0185325
40	0x3ed45b7a	0.4147604
41	0xbefb317b	-0.49061188
42	0x3e479127	0.19488965
43	0xbd64ac6c	-0.055828497
44	0xbe84b147	-0.25916502
45	0x3f155090	0.58326054
46	0x3f0e0cf8	0.5548854
47	0x3f4cb369	0.7996126
48	0xbd95a720	-0.07307267
49	0x3dbf15ec	0.09330353
50	0xbf1f4f11	-0.6223002
51	0xbd5c3821	-0.053764466
52	0x3d94cd9a	0.07265778
53	0xbcaf200d	-0.021377588
54	0x3ddfb53e	0.10923241
55	0xbef87edf	-0.48534295
56	0x3ec2b6e1	0.3803015
57	0x3ed59c93	0.4172102
58	0x3e9e6a40	0.30940437
59	0x3df576b7	0.11985534
60	0x3ea99d0e	0.33127636
61	0x3f8abbad	1.0838524
62	0x3f756840	0.958622
63	0xbcb11b98	-0.021619603
64	0x3e80a428	0.2512524
65	0xbe7e9ad4	-0.2486375
66	0x3d262f28	0.040572315
67	0x3d4e597c	0.050378308
68	0x3f26c27c	0.6514051
69	0x3ca115c2	0.019663695
70	0x3f276172	0.65383065
71	0xbe383a8a	-0.17991081
72	0x3e0d96de	0.13827083
73	0xbe82f344	-0.25576222
74	0xbee94744	-0.45562184
75	0xbeee1fac	-0.4650854
76	0x3f543cf6	0.8290552
77	0xbd76ef16	-0.060286604
78	0x3e14ad32	0.14519194
79	0xbe6544d9	-0.22389545
80	0xbe175fa5	-0.14782579
81	0x3eb4c39c	0.35305488
82	0x3ed1dd8d	0.40989342
83	0x3f1e1244	0.6174662
84	0xbf48ec0c	-0.7848518
85	0x3ea0828a	0.31349593
86	0x3f433a64	0.7626097
87	0x3d705cfe	0.058682434
88	0xbe27d452	-0.16389588
89	0x3f219937	0.6312441
90	0xbf403cb8	-0.7509265
91	0x3d8308a9	0.06398136
92	0x3d9b67a0	0.07588124
93	0x3d29ae34	0.0414259
94	0x3ea3fd4d	0.3202919
95	0xbec4858c	-0.38383138
96	0xbf145ae2	-0.57951176
97	0x3ec6cf0f	0.38829848
98	0xbda60348	-0.081060946
99	0xbe1160f4	-0.14197141
100	0xbd9da569	-0.07697565
101	0x3e7baf3f	0.2457857
102	0xbb8b49a1	-0.0042507206
103	0x3ef1ea11	0.4724889
104	0xbb47f5bd	-0.0030511462
105	0x3f47be36	0.78024614
106	0x3e1bba46	0.15207776
107	0xbead8c8f	-0.338963
108	0x3e3164d2	0.17323616
109	0xbe4f309c	-0.20233387
110	0x3eb806a3	0.35942563
111	0x3f5f5023	0.87231654
112	0x3d87a6cc	0.06623611
113	0xbea495ec	-0.3214563
114	0xbf05dccc	-0.52290034
115	0xbcb2a08c	-0.02180507
116	0xbf3f1d86	-0.74654424
117	0x3e9aa684	0.30205166
118	0xbebe5f1e	-0.37181944
119	0x3e35563b	0.17708676
120	0x3f037300	0.5134735
121	0xbea772a0	-0.3270464
122	0xbcd7a2d8	-0.026322767
123	0xbe5a9693	-0.21346502
124	0xbf0a1b68	-0.5394807
125	0x3dfd3eb4	0.12365475
126	0x3ed2d596	0.41178578
127	0x3f09662e	0.5367154
128	0x3eca6900	0.39533234
129	0x3d55ef02	0.05222989
130	0x3e5465d3	0.20741968
131	0xbec085a2	-0.37601954
132	0x3f3717a5	0.71520454
133	0xbeef30cd	-0.4671692
134	0x3f12868a	0.5723654
135	0xbdb58433	-0.088631056
136	0xbf09080d	-0.5352791
137	0x3e9369c3	0.28791627
138	0xbe71acab	-0.23601024
139	0x3d0cd54b	0.0343831
140	0x3ec4d6ed	0.38445225
141	0xbe741bd2	-0.23838738
142	0x3d638588	0.055547267
143	0x3a434365	0.0007448702
144	0xbf205a2f	-0.6263761
145	0xbe0d3077	-0.13788019
146	0x3e8d9a3f	0.27656743
147	0x3f22ca33	0.6358978
148	0x3cdf18ec	0.027233563
149	0xbf183810	-0.59460545
150	0xbcc0fd95	-0.023558417
151	0x3f02423b	0.5088231
152	0xbe3cc385	-0.1843396
153	0x3f8ed3cf	1.1158389
154	0xbe8f6dda	-0.28013498
155	0x3e94e712	0.29082543
156	0xbdbf525f	-0.09341883
157	0x3ed768dd	0.42072192
158	0xbe367f8e	-0.17822096
159	0x3d3a02ff	0.045413014
160	0xbdd7e2a5	-0.10541276
161	0xbe90928e	-0.28236812
162	0x3f386d75	0.7204202
163	0xbc92d904	-0.017925747
164	0x3ed7733d	0.42080107
165	0xbebb3d86	-0.36570376
166	0xbe4a7173	-0.1976984
167	0x3ea06077	0.31323597
168	0x3eb41165	0.3516952
169	0xbee9186b	-0.45526442
170	0xbc77d508	-0.015126474
171	0x3d8d5646	0.06901221
172	0xbf3df7a8	-0.7420602
173	0xbed6f8ee	-0.41986793
174	0x3e8af854	0.27142584
175	0x3eaf3ed0	0.3422761
176	0xbea234e9	-0.31680992
177	0x3ebe06fd	0.37114707
178	0x3dcafce4	0.09911516
179	0xbe54e215	-0.20789368
180	0xbeef72b7	-0.46767208
181	0xbf6bbefb	-0.9208829
182	0xbed3a534	-0.41336977
183	0x3e97edee	0.29673713
184	0xbe604725	-0.2190214
185	0x3f598804	0.8497317
186	0xbe82608a	-0.25464278
187	0xbcf3682a	-0.029712755
188	0xbdeb99db	-0.11503955
189	0x3df7676e	0.120802745
190	0xbf2f89e5	-0.68569785
191	0x3ec1139c	0.37710273
192	0x3e7cea78	0.24698818
193	0x3eb706f5	0.35747495
194	0x3f358e0a	0.7091986
195	0xbd1227e1	-0.035682563
196	0xbda92bd2	-0.08260311
197	0xbe3c039d	-0.18360753
198	0x3f376ead	0.7165325
199	0x3e2a038a	0.16602913
200	0x3f1b2697	0.6060576
201	0xbddbe615	-0.10737244
202	0x3e26001a	0.16210976
203	0xbf0305d5	-0.51180774
204	0xbf01ceff	-0.50706476
205	0xbf6a791b	-0.9159104
206	0xbe8f7a2d	-0.280229
207	0xbe9f7ed2	-0.31151444
208	0x3dce8ed4	0.10085836
209	0xbeeba027	-0.46020624
210	0x3ee1a062	0.44067675
211	0xbf2f0b45	-0.6837657
212	0xbe7ba11d	-0.24573179
213	0x3e6305c3	0.22170167
214	0x3dbf291d	0.093340136
215	0xbe31e200	-0.17371368
216	0xbf3a4f80	-0.7277756
217	0xbe366c86	-0.17814836
218	0xbe92a2ec	-0.28639925
219	0x3d1eb318	0.038745016
220	0xbf789873	-0.9710762
221	0x3ea4399d	0.32075205
222	0x3eea8222	0.45802408
223	0x3deeeb43	0.11665966
224	0xbe64217c	-0.22278398
225	0x3f7fef6f	0.9997472
226	0x3df10256	0.11768024
227	0xbdbf344e	-0.09336148
228	0x3e52a5f1	0.20571114
229	0xbf2292b0	-0.6350508
230	0x3efcdd80	0.4938774
231	0xbee29673	-0.4425541
232	0xbd12a63b	-0.03580306
233	0x3db2bad8	0.08727044
234	0xbcf6848e	-0.030092504
235	0xbe65a6d7	-0.22426926
236	0xbd9515da	-0.072795585
237	0x3f9f6130	1.2451534
238	0x3e846d31	0.25864556
239	0x3e59222f	0.21204446
240	0x3ec5a341	0.38601115
241	0xbf2ef23d	-0.68338376
242	0xbef975c2	-0.48722655
243	0x3e3c544b	0.1839153
244	0x3e9e5a74	0.30928385
245	0x3eae256c	0.34012926
246	0x3ec9551b	0.39322743
247	0x3ee06ed7	0.43834564
248	0x3e645fd4	0.2230218
249	0xbf001350	-0.5002947
250	0xbeedecf4	-0.46469843
251	0x3d5bc7c4	0.05365731
252	0xbda6daa6	-0.08147173
253	0x3dae70f6	0.08517639
254	0xbf1c1583	-0.60970324
255	0xbeaae049	-0.3337424

network.0.bias f4 [128]
0	0x3de67671	0.1125306
1	0x3db147ee	0.086562976
2	0x3db2de2a	0.08733781
3	0x3da0182d	0.07817111
4	0x3e1ab0c2	0.1510649
5	0x3d969ce2	0.07354142
6	0x3df69139	0.12039418
7	0x3d4a1f18	0.04934606
8	0x3df6a9c2	0.120440975
9	0x3e102ffa	0.14080802
10	0x3dd7db07	0.10539823
11	0x3ddcc91b	0.10780545
12	0x3dc8333d	0.09775398
13	0x3dd3947e	0.10331057
14	0x3ddc1c8b	0.10747632
15	0x3d6372b8	0.055529326
16	0x3d90c0e0	0.07068038
17	0x3cc7558d	0.024332786
18	0x3ddc53c5	0.10758165
19	0x3e06712d	0.1312911
20	0x3e194aff	0.14970015
21	0xbca90d91	-0.020636352
22	0x3db3043a	0.087410405
23	0x3d9b9bf5	0.07598106
24	0x3dde9be8	0.108695805
25	0x3e00ec8a	0.12590232
26	0x3ddc91d4	0.10770002
27	0x3de36e87	0.11105066
28	0x3e0dcd73	0.13847904
29	0x3dd46ab6	0.10371916
30	0x3c1e32f6	0.009655705
31	0x3d2cc330	0.042178333
32	0x3daf85ca	0.0857044
33	0xbc884bfb	-0.016637793
34	0x3e045d40	0.12926197
35	0x3dd22d66	0.10262565
36	0x3d3a0b6d	0.045421053
37	0x3d0cde1f	0.03439152
38	0x3dd5c6fa	0.104383424
39	0x3bd52bd5	0.0065054693
40	0x3de67cd6	0.11254279
41	0x3e1d75b8	0.15376937
42	0x3de4e2ae	0.11176048
43	0x3dcabba7	0.09899073
44	0x3d5b19f8	0.053491563
45	0x3ded2243	0.115788005
46	0x3dce09a8	0.100604355
47	0x3dde810f	0.1086446
48	0x3e0dff19	0.13866843
49	0x3db7633b	0.089544736
50	0x3df9164b	0.12162455
51	0x3de34ac8	0.11098248
52	0x3d8e90f2	0.0696124
53	0x3da6e77d	0.08149622
54	0x3dec8a31	0.115497954
55	0x3e0296eb	0.12752883
56	0x3dc2ab0f	0.09505283
57	0x3c285038	0.010273032
58	0x3df6c82f	0.12049901
59	0x3dbc2453	0.09186616
60	0x3dcb698c	0.09932241
61	0x3db8693f	0.09004449
62	0x3de09a36	0.109669134
63	0x3db8e782	0.090285316
64	0x3d693e99	0.056944463
65	0x3e0335de	0.12813517
66	0x3dcca78d	0.09992895
67	0x3dc57393	0.09641185
68	0x3e1a45af	0.15065645
69	0x3de3ce22	0.11123301
70	0x3dae6a67	0.085163884
71	0x3dbf227b	0.093327485
72	0x3dd7dbc0	0.10539961
73	0x3db146af	0.0865606
74	0x3e44484f	0.19168209
75	0x3d966dfd	0.07345197
76	0x3d976267	0.07391816
77	0x3d643215	0.055711824
78	0x3cdab0b8	0.026695594
79	0x3daf573f	0.08561563
80	0x3e192bfc	0.14958185
81	0x3da20073	0.07910242
82	0x3d624d57	0.05524954
83	0x3da1e871	0.07905663
84	0x3de6418a	0.11242969
85	0x3e1bab44	0.15202051
86	0x3dc7d76f	0.097578876
87	0x3de060a6	0.10955934
88	0x3dfc4fbf	0.12319898
89	0x3da64fac	0.08120665
90	0x3b71123e	0.0036784555
91	0x3dd50a79	0.10402388
92	0x3d9c0ec9	0.076200075
93	0x3dcbd089	0.09951884
94	0x3bd1fb61	0.0064081405
95	0x3d57b1e9	0.052659903
96	0x3dcacc81	0.09902287
97	0x3db170ad	0.08664069
98	0x3d3dd82a	0.04634873
99	0x3d13cfa9	0.036086712
100	0x3e03af7b	0.12859909
101	0x3dd17d17	0.10228937
102	0x3dcb07d6	0.09913604
103	0x3dc98e58	0.09841603
104	0x3d3b92ee	0.04579442
105	0x3da0d05b	0.07852241
106	0x3e076954	0.13223773
107	0x3d9cb452	0.07651581
108	0x3cc5a10c	0.024124645
109	0x3cfa172f	0.030528633
110	0x3dabacde	0.08382581
111	0x3d8d208a	0.06890972
112	0x3e07853a	0.13234416
113	0x3d61b052	0.055099793
114	0x3deaf11c	0.11471769
115	0x3df4b637	0.11948817
116	0x3daf89a2	0.08571173
117	0x3dbcddf5	0.092220224
118	0x3df5e111	0.12005819
119	0x3d9d6dcb	0.07686957
120	0xbcd2a3ca	-0.025712866
121	0x3e071026	0.13189754
122	0x3dc389ed	0.09547792
123	0x3cc77471	0.024347516
124	0x3e08e800	0.13369751
125	0x3dada9cf	0.08479654
126	0x3dda5e5d	0.106625296
127	0x3d99e926	0.07515173

network.2.weight f4 [128, 128]
0	0x3d38254b	0.04495744
1	0x3da0f0a3	0.07858398
2	0xbe41c599	-0.18923034
3	0x3e3ba730	0.18325496
4	0xbbc51b6f	-0.006015233
5	0x3c8c7c6a	0.017149169
6	0x3d796507	0.060887363
7	0xbd6eb0d5	-0.05827411
8	0x3d8f769a	0.07005043
9	0x3cc4480a	0.023960132
10	0xbde4cb47	-0.111715846
11	0xbe4fc528	-0.20290053
12	0x3cfb017a	0.030640353
13	0xbdb662f9	-0.08905596
14	0x3c4b9782	0.012426259
15	0x3dd8b95c	0.105822295
16	0xbe8267ef	-0.2546992
17	0x3b8f7e89	0.004379098
18	0xbd29d8ff	-0.04146671
19	0xbdfe4f56	-0.12417476
20	0xbdbb7e79	-0.09154982
21	0xbda7cdc9	-0.08193547
22	0xbd2e0572	-0.04248566
23	0x3dfb68af	0.12275826
24	0xbd93a789	-0.07209689
25	0xbdc88ad9	-0.09792108
26	0x3cb5ee1e	0.02220827
27	0xbd8ec9c3	-0.06972077
28	0x3d04e7f7	0.03244778
29	0x3c9cbfe3	0.019134467
30	0xbda188ad	-0.07887397
31	0xbdec3fe2	-0.11535622
32	0xbdeb823e	-0.11499451
33	0x3e1bdff6	0.15222153
34	0xbe31df53	-0.17370348
35	0x3e44ef5b	0.19231932
36	0xbd06d3e8	-0.032916933
37	0x3c284356	0.01026996
38	0x3db6edfe	0.08932112
39	0x3dfc3a10	0.12315762
40	0x3e79e2cb	0.24402921
41	0x3e158177	0.14600168
42	0x3e0d7828	0.13815367
43	0xbe2f8c33	-0.17143326
44	0x3d9e2f65	0.077238835
45	0x3a3a6480	0.00071103126
46	0xbdfba9c2	-0.12288238
47	0x3d716d09	0.058941875
48	0x3e070c92	0.13188389
49	0x3e140f6a	0.14459005
50	0x3dbec7b3	0.09315433
51	0xbc449ce2	-0.012000294
52	0x3e63e002	0.22253421
53	0xbdf58ffe	-0.11990355
54	0xbe6d1f0e	-0.23156378
55	0xbe00e170	-0.12585998
56	0x3d8bf1ec	0.06833252
57	0xbdf41006	-0.11917119
58	0x3b8ff848	0.004393611
59	0xbe8e8b31	-0.2784057
60	0xbdd2db4f	-0.10295736
61	0xba32355b	-0.0006798112
62	0xbe2e351e	-0.1701245
63	0xbddb974d	-0.10722218
64	0x3d8e2b6d	0.069418766
65	0x3dab0035	0.08349649
66	0xbd2d8530	-0.042363346
67	0x3e6c03cd	0.23048325
68	0x3c35cb33	0.01109581
69	0xbe6344a7	-0.22194158
70	0xbde1caa3	-0.11024978
71	0x3d4ea87f	0.05045366
72	0xbeb1a752	-0.34697968
73	0x3cf6aec2	0.030112628
74	0xbe331a29	-0.17490448
75	0xbc60211b	-0.013679768
76	0x3dc668db	0.09687968
77	0xbd96f41b	-0.07370778
78	0xbd558419	-0.05212793
79	0x3c93d60f	0.018046407
80	0xbd2316ff	-0.039816853
81	0xbd8064c4	-0.062692195
82	0x3e7f3290	0.24921632
83	0x3e144225	0.14478357
84	0xbdfec841	-0.12440539
85	0xbd9e5805	-0.07731632
86	0xbde08e36	-0.109646246
87	0xbe5b71d3	-0.21430139
88	0x3dd60679	0.10450453
89	0x3df6b032	0.12045325
90	0xbd39adee	-0.045331888
91	0xbe5bdbc5	-0.21470554
92	0xbeb296c0	-0.34880638
93	0x3e1654cd	0.14680786
94	0x3c9e04b2	0.019289348
95	0x3cdeaaa9	0.027180986
96	0x3da0fd98	0.07860869
97	0xbd225b63	-0.039637934
98	0xbb6839fa	-0.0035434947
99	0x3e25a6a6	0.16176853
100	0xbe321e0e	-0.17394277
101	0xbdacc36c	-0.08435711
102	0xbdc7459d	-0.097300746
103	0x3e33a3d9	0.17542972
104	0x3d28c9d2	0.041208096
105	0x3cea0ef1	0.028571578
106	0x3d83b0bc	0.06430194
107	0xbbea5c96	-0.0071521504
108	0xbe92c631	-0.28666833
109	0xbbc315fc	-0.0059535485
110	0x3c86d415	0.01645855
111	0x3e749e74	0.2388857
112	0xbe4bb960	-0.19894934
113	0x3e51b949	0.20480837
114	0x3db4d81e	0.088302836
115	0x3e11a131	0.14221646
116	0x3deff44e	0.11716519
117	0xbce48806	-0.027896892
118	0xbd1f4be1	-0.038890723
119	0xbcab6bb9	-0.02092539
120	0x3c039129	0.008030214
121	0x3d19b4ae	0.037525825
122	0x3e29cbb4	0.16581613
123	0xbeddddbe	-0.43333238
124	0x3db54bd2	0.08852352
125	0xbd84c1a3	-0.06482246
126	0xbdc652e6	-0.0968378
127	0xbcc2c31a	-0.023774672
128	0x3e475403	0.19465642
129	0x3d8daea7	0.06918078
130	0xbd9e4ac4	-0.07729104
131	0xbe6f6647	-0.2337886
132	0x3d25ff07	0.040526416
133	0x3d6080a0	0.054810166
134	0xbe6f8bf7	-0.23393236
135	0x3e35a77d	0.17739673
136	0x3e2b9656	0.16756567
137	0x3d344c6f	0.044018205
138	0xbd651c88	-0.055935413
139	0xbbeb2ba7	-0.0071768346
140	0xbba3f5e2	-0.0050036767
141	0x3c6cd47c	0.014454957
142	0x3e09ecbf	0.13469218
143	0x3db070fe	0.086153015
144	0xbe29f4ec	-0.16597337
145	0x3e13b70d	0.14425297
146	0xbcb2a8b2	-0.021808956
147	0xbce424f4	-0.027849652
148	0x3eba7b2d	0.364221
149	0x3e702771	0.23452546
150	0x3d81b4af	0.06333291
151	0x3dc02b6d	0.09383283
152	0xbe100007	-0.1406251
153	0x3c61d09f	0.013782649
154	0xbd139361	-0.036029223
155	0xbb8d2244	-0.0043070633
156	0xbcbfbda8	-0.023405865
157	0x3e723063	0.2365127
158	0x3e6834dd	0.22676416
159	0x3ddb2d47	0.10701995
160	0x3d914121	0.070925005
161	0x3d9192e4	0.07108095
162	0xbc8784e5	-0.016542861
163	0xbe072fb0	-0.13201785
164	0xbebdf0bf	-0.37097737
165	0x3d0b293a	0.033974864
166	0xbdb515b6	-0.08842032
167	0x3c32a5fd	0.0109038325
168	0xbe6a5d88	-0.22887242
169	0xbeaac4f9	-0.33353403
170	0x3d94d353	0.072668694
171	0xbe531ef9	-0.20617284
172	0xbda3d845	-0.080002345
173	0x3e03d00e	0.12872335
174	0xbe1d2577	-0.15346323
175	0xbc45dc52	-0.012076454
176	0x3b5ac613	0.0033382222
177	0x3e123318	0.14277303
178	0x3e17a42a	0.14808717
179	0x3cf1f2de	0.029534753
180	0x3e22b1ef	0.15888189
181	0xbe3410be	-0.17584512
182	0x3d707ef4	0.058714822
183	0x3e2bf70d	0.16793461
184	0xbd899dec	-0.06719574
185	0x3e210c6f	0.157274
186	0x3eb80bd9	0.3594654
187	0x3c004ca2	0.007830771
188	0x3daed87b	0.08537384
189	0xbbc32041	-0.0059547727
190	0xbcec7c76	-0.028867941
191	0x3d92f1a6	0.07174997
192	0xbd997987	-0.074938826
193	0xbe282825	-0.16421564
194	0xbd80604c	-0.06268367
195	0xbe8b581b	-0.27215657
196	0xbe36a070	-0.1783464
197	0x3de42d2a	0.11141427
198	0xbe0dbffc	-0.13842767
199	0xbda5ca18	-0.08095187
200	0x3e739582	0.23787501
201	0xbe20708c	-0.15667933
202	0xbdc81346	-0.09769301
203	0x3e7283c7	0.23683082
204	0x3e03daa4	0.12876374
205	0xbdc48684	-0.09595969
206	0xbeffe08d	-0.49976006
207	0xbd973cda	-0.073846534
208	0xbe997611	-0.2997289
209	0x3d51e394	0.051242426
210	0x3e1a69e7	0.15079461
211	0x3cc833f0	0.024438828
212	0x3d6ed8cf	0.058312234
213	0xbdddb14f	-0.108248346
214	0xbc93e50b	-0.018053552
215	0x3c638653	0.013887006
216	0xbddc1198	-0.10745543
217	0xbd0de8db	-0.034645896
218	0x39bc8ae4	0.00035961636
219	0x3dc06ad8	0.09395379
220	0x3c4928ad	0.012277764
221	0x3daf4e17	0.08559816
222	0xbdadafc3	-0.084807895
223	0x3df24804	0.11830142
224	0x3d91b46e	0.07114492
225	0xbd36d761	-0.044638995
226	0x3cd67063	0.026176637
227	0xbd55a09d	-0.052155126
228	0xbe661cd7	-0.22471939
229	0xbbcaaed2	-0.006185391
230	0x3e4d9cc7	0.20079337
231	0x3bc5bcc2	0.0060344646
232	0xbd2239a3	-0.039605748
233	0x3e6b7622	0.22994283
234	0xbe31da51	-0.17368437
235	0xbe3ec434	-0.18629533
236	0xbe209c7d	-0.15684696
237	0xbd941ae0	-0.072316885
238	0x3e5165a7	0.20448934
239	0x3e09cd52	0.1345723
240	0x3dd82ba2	0.10555197
241	0xbda5584d	-0.08073483
242	0xbc5300b2	-0.012878584
243	0x3bfc24b1	0.0076948036
244	0xbddef3f9	-0.10886378
245	0x3d32b45d	0.04362904
246	0x3dd5abcd	0.10433159
247	0x3c554446	0.013016766
248	0xbd8b124a	-0.06790598
249	0x3e07fa53	0.13279085
250	0xbd83e13b	-0.06439444
251	0x3da38e73	0.079861544
252	0xbaf274ae	-0.0018497908
253	0x3d2de85a	0.042457916
254	0xbcd34509	-0.025789754
255	0xbd9ca43e	-0.07648514

network.2.bias f4 [128]
0	0xbcc9edb5	-0.02464948
1	0x3cb757b3	0.022380685
2	0x3d726cbd	0.059185732
3	0x3c5ec29c	0.013596203
4	0x3cf68d7c	0.030096762
5	0x3d1c2882	0.03812457
6	0x3d673714	0.05644901
7	0xbb8e0ea8	-0.0043352433
8	0x3d7333e8	0.059375674
9	0xbcb46913	-0.02202276
10	0xba2616b2	-0.00063357793
11	0x3d7a8c09	0.061168704
12	0xbc60bd6b	-0.013717036
13	0xbd09a545	-0.03360488
14	0x3dbd58c4	0.09245446
15	0x3da1bfea	0.07897933
16	0xbc18246b	-0.0092860265
17	0x3c50e50f	0.012749924
18	0x3d3b4de4	0.04572858
19	0x3c5c1e51	0.013434962
20	0x3dd29225	0.10281781
21	0x3da0efd0	0.078582406
22	0xbc2586b1	-0.010102914
23	0xbca60dc8	-0.020270243
24	0x3dd27534	0.10276261
25	0x3d44b8cc	0.0480278
26	0x3d9e216e	0.0772122
27	0x3d3da0f8	0.04629609
28	0xbc8a7173	-0.0168998
29	0xbc68d296	-0.014210364
30	0x3dbbda41	0.09172488
31	0xbca42274	-0.02003596
32	0x3ca3a83e	0.019977685
33	0x3d62970e	0.05531984
34	0x3d191030	0.037368953
35	0x3da74e9f	0.08169293
36	0x3d7d8665	0.061895747
37	0xbc91fcfe	-0.017820831
38	0x3d97bc9c	0.07409021
39	0x3d69aa63	0.05704726
40	0x3d84010c	0.06445512
41	0x3d63b9a7	0.055596974
42	0x3d9d0d7c	0.076685876
43	0x3d681bb0	0.05666703
44	0x3d98e775	0.07466022
45	0x3cbd6658	0.02312009
46	0x3d99180b	0.07475289
47	0x3d7144e8	0.058903605
48	0x3dc74939	0.09730763
49	0x3d74e8fd	0.059792507
50	0x3dec9ba4	0.115531236
51	0x3d594955	0.05304845
52	0x3d6d35d6	0.05791267
53	0x3dae9706	0.08524899
54	0x3c2231a4	0.009899531
55	0x3d311262	0.04323042
56	0x3d6fc6d3	0.058539223
57	0x3d8422c4	0.064519435
58	0x3d517b58	0.05114302
59	0x3d14e262	0.036348708
60	0x3d44ab0f	0.048014697
61	0x3d84e2c6	0.06488566
62	0x3d53dadb	0.05172239
63	0x3d6ed39a	0.058307268
64	0xbc0e3028	-0.0086784735
65	0x3d37fa9f	0.044916745
66	0xbc6cb3c2	-0.0144471545
67	0x3d6ab59d	0.057302106
68	0x3dd2acc5	0.102868594
69	0x3d7972f6	0.06090065
70	0x3c614241	0.013748706
71	0x3d7d3a97	0.061823454
72	0x3db0af95	0.086272396
73	0x3d34199e	0.043969743
74	0x3d049aeb	0.032374304
75	0xbccdc7b5	-0.025119642
76	0x3d475ff6	0.0486755
77	0x3d4e6eff	0.050398823
78	0x3d6c27dc	0.0576552
79	0x3d603784	0.054740444
80	0x3dcf41c4	0.10119966
81	0x3d959cd6	0.07305305
82	0xbc0ff79c	-0.008787062
83	0x3d7238ce	0.059136204
84	0xbb9a2cd7	-0.0047050524
85	0xbccf73b0	-0.025323719
86	0x3d952dac	0.07284102
87	0x3d79558c	0.0608726
88	0xbc22f1ba	-0.009945327
89	0x3d80d464	0.0629051
90	0x3d5f721b	0.05455218
91	0x3d8f9b1d	0.070120074
92	0x3d8f8e3b	0.0700955
93	0x3d70f0db	0.058823448
94	0x3d92faa9	0.07176716
95	0x3d983487	0.07431894
96	0xbc9d5b32	-0.019208524
97	0x3d50cc60	0.050976157
98	0xbc3bbb40	-0.011458218
99	0x00000000	0.0
100	0xbbb4e504	-0.005520465
101	0xbca36836	-0.019947153
102	0x3d94b955	0.07261912
103	0x3d8df6e3	0.069318555
104	0x3c869ef7	0.016433222
105	0x3d253946	0.040337823
106	0x3d843d4a	0.064570025
107	0x3c6ba230	0.01438193
108	0xbd1067b2	-0.03525514
109	0x3d9f61b5	0.07782308
110	0x3dcc4853	0.09974732
111	0x3c85b7f8	0.016323075
112	0x3b46f993	0.003036116
113	0x3d69c787	0.05707505
114	0x3d50d8e0	0.050988078
115	0x3db11a6c	0.08647618
116	0x3d912763	0.070875905
117	0x3d6eee73	0.05833287
118	0x3d8dd5ce	0.06925546
119	0x3d6ce08b	0.05783133
120	0x3dace805	0.08442692
121	0xbc9c7a5e	-0.019101318
122	0x3dfcc79b	0.12342759
123	0x3d783ac1	0.060602907
124	0xbc43956b	-0.0119374795
125	0x3d88199c	0.066455096
126	0x3cd6213e	0.026138898
127	0x3d6bc111	0.05755717

network.4.weight f4 [6, 128]
0	0xbe9a8294	-0.30177748
1	0xbc5efdd1	-0.013610319
2	0x3d2ef599	0.04271469
3	0x3d10deb4	0.035368636
4	0xbec12e3e	-0.37730592
5	0xbdcb60cf	-0.09930574
6	0x3c90b993	0.017666614
7	0xbe93fce5	-0.2890388
8	0x3dc46064	0.095886976
9	0x3c6ffb15	0.014647265
10	0xbc5f9037	-0.013645223
11	0x3d59af2d	0.053145576
12	0xbdcaffda	-0.09912081
13	0xbe86322e	-0.2621016
14	0x3eb9e6be	0.36308855
15	0x3e963c6f	0.29342982
16	0xbe2b54b5	-0.16731532
17	0x3e61371f	0.21993683
18	0x3e699a6e	0.22812817
19	0xbeb4e5a7	-0.3533146
20	0x3ed4393b	0.41449913
21	0xbe7e4c11	-0.24833705
22	0xbd24db2f	-0.040248092
23	0x3ca99ca1	0.02070457
24	0xbe7a9497	-0.24470745
25	0xbd326275	-0.043550927
26	0x3dda8f63	0.1067188
27	0x3e15994f	0.14609264
28	0xbd80bfe4	-0.062866
29	0xbda22cea	-0.07918723
30	0xbe6de0e7	-0.23230325
31	0xbe2ec73a	-0.17068186
32	0xbebe2120	-0.37134647
33	0xbe1be212	-0.15222958
34	0x3e18593d	0.14877792
35	0xbd4003d9	-0.04687867
36	0x3c026337	0.007958225
37	0xbe9e048a	-0.30862838
38	0xbe833554	-0.25626624
39	0xbe189c63	-0.14903407
40	0x3da5ac83	0.080895446
41	0x3ad52f61	0.001626473
42	0x3e86080d	0.26178017
43	0xbec0dd9b	-0.37669072
44	0x3e799da6	0.24376544
45	0xbe85f9df	-0.261672
46	0x3e9e471f	0.30913636
47	0x3e800a88	0.25008035
48	0x3e8d7a09	0.27632168
49	0xbcfd6bd6	-0.03093521
50	0x3e0fa6be	0.14028451
51	0x3dab4175	0.08362094
52	0xbcdd30af	-0.027000753
53	0x3e2388d7	0.15970169
54	0x3e16c359	0.14722957
55	0xbdb2ea19	-0.08736057
56	0x3d5d887c	0.05408524
57	0xbe87bda2	-0.26511866
58	0xbea4092a	-0.32038242
59	0xbc282000	-0.010261536
60	0xbe8333f1	-0.25625566
61	0xbd4c1d8a	-0.04983286
62	0xbdb027de	-0.08601354
63	0xbd734a7a	-0.0593972
64	0xbe27cbd4	-0.16386348
65	0xbd612e21	-0.054975633
66	0x3dab69f4	0.08369818
67	0xbd5f95ff	-0.054586407
68	0x3e23c8e2	0.159946
69	0x3e071d7a	0.13194838
70	0x3e68353f	0.22676562
71	0x3dc8fb2f	0.098135345
72	0xbe293a5c	-0.16526169
73	0x3dfdc247	0.12390571
74	0x3e16fb7d	0.14744373
75	0xbe4d26e7	-0.20034371
76	0xbe825a8d	-0.2545971
77	0xbe0d1547	-0.13777648
78	0x3e53bb65	0.20676954
79	0xbcaf1d09	-0.02137615
80	0x3e712d93	0.23552541
81	0x3d21ae49	0.039472852
82	0x3cf3e536	0.029772382
83	0xbe4d73b9	-0.20063676
84	0x3d258d11	0.040417735
85	0x3e071530	0.13191676
86	0xbd02bcfc	-0.03191851
87	0x3c7fd9c9	0.015615889
88	0xbe0ee068	-0.13952792
89	0xbdc90de4	-0.098171026
90	0x3dc17ecd	0.094480135
91	0x3e2a83dd	0.16651864
92	0xbea6ee3a	-0.32603627
93	0xbdaf4361	-0.085577734
94	0xbe1e66ab	-0.15468852
95	0xbe8b844d	-0.27249375
96	0xbdb61b89	-0.08891971
97	0x3db643da	0.088996604
98	0x3d3f59ba	0.04671643
99	0x3ea857b5	0.32879415
100	0x3d594f70	0.053054273
101	0xbd0864f4	-0.0332994
102	0x3d8d8704	0.06910518
103	0xbe7b9ef3	-0.24572353
104	0xbe03f8a7	-0.12887822
105	0xbe38b169	-0.18036427
106	0xbd4164c2	-0.04721523
107	0xbdfa08e0	-0.12208724
108	0x3e2f3b5f	0.17112492
109	0xbd928011	-0.07153333
110	0x3e5d158e	0.21590254
111	0xbe69aede	-0.22820613
112	0xbeb18d3c	-0.34678066
113	0xbe3e073d	-0.18557449
114	0xbd9e2c99	-0.0772335
115	0xbe5849d7	-0.21121918
116	0x3da05165	0.07828025
117	0x3e5fb3c7	0.21845923
118	0xbe9ef36b	-0.31045088
119	0x3e8a1335	0.2696778
120	0x3e1e5b39	0.15464486
121	0x3e7b7feb	0.24560516
122	0x3ee645a8	0.44975019
123	0x3de22d6e	0.11043821
124	0x3d5962e9	0.053072844
125	0xbd43143d	-0.047626723
126	0x3d8aa39d	0.06769488
127	0x3e1e4ff4	0.15460187
128	0x3d7a4b8e	0.06110721
129	0x3dcea079	0.100892015
130	0xbe327492	-0.1742728
131	0x3dbc160d	0.09183893
132	0xbe047473	-0.12935047
133	0xbe83a209	-0.2570956
134	0xbcbe3c5e	-0.023222145
135	0x3cfddb4f	0.030988364
136	0x3e80139e	0.25014967
137	0x3dc4e8b1	0.09614695
138	0xbdfe4916	-0.12416284
139	0xbe6f2707	-0.23354732
140	0xbc83acd1	-0.016073616
141	0x3d063860	0.032768607
142	0x3e5fbaf7	0.21848665
143	0x3e3494f4	0.17634946
144	0x3d9c589a	0.07634087
145	0x3e649919	0.22324027
146	0xbe63014c	-0.22168463
147	0x3e98d4e0	0.2984991
148	0xbd74c369	-0.05975667
149	0x3e8e7639	0.27824572
150	0xbe12b6de	-0.14327571
151	0xbd179a3c	-0.037012324
152	0xbe8b4b4c	-0.27205884
153	0x3ce8684e	0.028370049
154	0x3ddb59bd	0.107104756
155	0x3dc498d5	0.09599463
156	0x3e785959	0.24252833
157	0xbd249c2f	-0.04018801
158	0x3ecb6b6e	0.397304
159	0xbe8dad08	-0.27671075
160	0xbe8e071f	-0.27739808
161	0x3d4d81a6	0.05017247
162	0xbe0bee5f	-0.1366515
163	0x3ef20b98	0.4727447
164	0xbdbaaecd	-0.09115372
165	0x3d8d9316	0.0691282
166	0x3dfd26b0	0.12360895
167	0x3e5d9409	0.21638502
168	0xbe706f9b	-0.23480074
169	0xbd726351	-0.059176747
170	0xbdddcf56	-0.10830562
171	0x3d8242b7	0.06360381
172	0x3eb43453	0.3519617
173	0xbd222213	-0.039583277
174	0xbe2c48ae	-0.168246
175	0xbc5abbe9	-0.013350465
176	0x3dee8334	0.11646119
177	0xbe5d3b52	-0.2160466
178	0x3e267ad1	0.16257788
179	0xbe00995b	-0.125585
180	0x3ded29b6	0.11580221
181	0xbd2a88c1	-0.041634325
182	0xbe167261	-0.1469207
183	0xbe9a70f0	-0.3016429
184	0xbeab2fcd	-0.33434907
185	0x3dfa0879	0.12208647
186	0xbc55c2b3	-0.013046908
187	0xbe1b260b	-0.15151231
188	0x3eee3d0b	0.46530947
189	0x3da125a2	0.07868506
190	0xbe6baf42	-0.23016074
191	0xbea68e99	-0.32530668
192	0xbeaa1b31	-0.3322387
193	0xbe8298f8	-0.2550733
194	0x3e161305	0.14655693
195	0x3e9f0bb7	0.31063625
196	0x3d972bb7	0.07381385
197	0x3d30c780	0.043159008
198	0x3e03c326	0.12867412
199	0xbcf60e4d	-0.030036116
200	0xbe94709b	-0.2899216
201	0x3d85cbd1	0.065330155
202	0xbdeb8809	-0.11500556
203	0xbd8733a8	-0.066016495
204	0x3bed6381	0.007244528
205	0x3db596c4	0.08866647
206	0x3d9d295a	0.07673903
207	0x3c5a0365	0.013306473
208	0xbeb6c80d	-0.35699502
209	0x3e4fb5c8	0.20284188
210	0xbd56d2ff	-0.052447315
211	0x3d23bc71	0.039974634
212	0xbe5fbf8b	-0.21850412
213	0xbe262385	-0.16224487
214	0x3e1d0c56	0.15336737
215	0x3d61d2d1	0.05513269
216	0xbd2a9db7	-0.041654315
217	0x3f10f3b6	0.56621873
218	0xbe91eaac	-0.28499353
219	0x3e698aa1	0.22806789
220	0x3d198595	0.03748091
221	0xbe2b188c	-0.16708583
222	0xbea685e7	-0.32524034
223	0x3e6c86a2	0.23098233
224	0x3db2968d	0.087201215
225	0x3de9b155	0.114107765
226	0xbe08603a	-0.13317958
227	0xbdaf19fe	-0.085498795
228	0xbbbe663c	-0.005810527
229	0x3e0d3d7a	0.13792983
230	0xbe5603e7	-0.20899926
231	0x3e2c4a80	0.16825294
232	0xbee2bb51	-0.44283536
233	0x3db8d9c5	0.09025911
234	0xbdf3b1f9	-0.1189918
235	0xbc60b16c	-0.013714176
236	0x3e616d96	0.2201446
237	0x3e085f79	0.1331767
238	0xbc7dc8ae	-0.01548974
239	0xbf0780c5	-0.5293086
240	0xbe308caf	-0.17241167
241	0x3dba8662	0.09107663
242	0x3e20492b	0.15652911
243	0xbd21bdba	-0.039487578
244	0x3c99b4b6	0.018762928
245	0x3e38d395	0.18049462
246	0x3e0a0a93	0.13480596
247	0xbe11affe	-0.14227292
248	0xbd5f24ff	-0.05447864
249	0xbe4cbdd2	-0.19994286
250	0x3e312895	0.17300637
251	0xbe6195b6	-0.22029766
252	0xbe782780	-0.24233818
253	0xbe8f161d	-0.2794656
254	0xbe6e3570	-0.23262572
255	0x3df2cad6	0.11855094

network.4.bias f4 [6]
0	0x3ca5709e	0.020195302
1	0x3c6e85ff	0.014558314
2	0x3a4d86d0	0.0007840218
3	0x3b67c540	0.0035365373
4	0xbd2e42c6	-0.04254415
5	0xbd580600	-0.052740097
