DRL_113-2/DRL-Assignment-1/dqn_0320.pt (torch, 77970 bytes, 6 tensors)

network.0.weight f4 [128, 11]
000000 61 25 69 be df 58 aa 3e 62 33 34 3f ae 1c 16 bf
       -0.22768165 0.33270928 0.70390904 -0.5863751
000010 4a ca 5e 3f 07 ef f3 be db d9 3a bd d9 95 8d 3f
       0.8702742 -0.476433 -0.04561792 1.1061355
000020 10 3d 1e 3f 08 b1 79 be 94 69 e6 3e 03 ae fc be
       0.61811924 -0.24383938 0.45002425 -0.4935151
000030 84 93 eb 3e ff 57 8e be 20 d1 be 3d b0 2c 25 3f
       0.46010983 -0.2780151 0.09317231 0.6452131
000040 c3 08 1d be 2b ff f9 3e 02 ef 4e 3e 03 ca d3 3e
       -0.15335374 0.4882749 0.20208362 0.4136506
000050 db 93 a2 3e 42 80 31 3f 9d 1b 81 bd bd c8 51 3f
       0.3175343 0.6933633 -0.06304095 0.8194693
000060 8d 6f 0a bf 16 2d fb 3e 5a eb fe 3e 92 97 dc 3e
       -0.54076463 0.49057835 0.49788934 0.4308439
000070 53 4d d8 be c3 c6 55 3e 5d 1e e7 3d 02 ea 11 bf
       -0.42246494 0.20876603 0.11285088 -0.5699769
000080 9a 6d 8e be 6e 7b fb 3e 37 12 22 3d f2 de 92 bd
       -0.27817994 0.49117607 0.039568152 -0.0717143
000090 be 84 07 bf fe 00 54 3d a7 5b 4e 3e 25 54 9b 3b
       -0.52936924 0.05175876 0.2015215 0.0047402554
0000a0 5b f5 9d 3d 36 cf e4 bd 32 a5 68 be 58 ff 37 bd
       0.077128135 -0.11172335 -0.22719267 -0.04492125
0000b0 8a df 34 3e e9 e8 ed be 4b 7d f8 3d 02 e7 a4 3e
       0.17663398 -0.4646676 0.12133273 0.32207495
0000c0 5b cb ae be 39 83 83 bc 4a db a6 3e f8 69 4d 3f
       -0.34139523 -0.016053783 0.3258918 0.8023982
0000d0 02 c5 f1 3e 9f d1 f6 bc a6 5d 19 3f 21 70 b2 3a
       0.47220618 -0.030129252 0.5990852 0.0013613739
0000e0 b5 c5 04 bc 9c bb 30 3e b8 01 a6 3d b3 94 29 3e
       -0.008103778 0.17259067 0.081057966 0.1656063
0000f0 03 f7 37 3f d2 19 29 be e1 6c 59 be 9f a4 b7 3d
       0.71861285 -0.16513756 -0.2123294 0.08966946
000100 05 b4 11 be b6 69 39 3d dc c6 60 3f b6 5c 10 bd
       -0.14228828 0.04526683 0.87803435 -0.035244666
000110 16 06 76 3e da e5 4b 3e 29 f8 b9 bd 48 f8 98 bb
       0.24025759 0.199119 -0.09080536 -0.0046682693
000120 63 80 4d 3e d5 13 27 bf a4 96 a8 3e e3 58 c0 3e
       0.20068507 -0.65264636 0.3292743 0.37567815
000130 2c 07 10 3e 4c b9 58 be ec 81 43 bd 9f 64 02 bf
       0.14065236 -0.21164435 -0.047731325 -0.50934786
000140 f1 6e c0 be cd 0c 50 be 94 42 16 be 64 14 c8 3e
       -0.37584642 -0.20317383 -0.14673835 0.39078057
000150 46 0f 1d 3f 42 e5 90 3f c1 14 89 be b9 79 37 bf
       0.6135143 1.1319964 -0.26773646 -0.7167011
000160 eb 2c 38 3e 5c a0 50 bf 0e a4 91 3d 6d 0f ec bd
       0.17985885 -0.8149469 0.07111369 -0.1152638
000170 af a9 46 bf 08 eb b7 bc b1 2a ce 3e 2b b7 a3 bd
       -0.77602667 -0.022450939 0.40266946 -0.07993921
000180 5b fc 04 3e a6 da e7 3e 1b f4 db 3e 29 a2 19 bf
       0.12986891 0.45284003 0.42959675 -0.6001306
000190 58 ce 87 3f 94 39 76 3e 6b 83 03 3e c8 88 a8 be
       1.0609846 0.24045402 0.128431 -0.32916856
0001a0 45 61 45 3f 49 f1 2f be 8f 51 0e 3e dc 73 c6 be
       0.77101547 -0.17181887 0.138983 -0.3876027
0001b0 ab c5 ce 3d b1 94 be 3e 28 5d c4 3d b5 a4 ec 3d
       0.10096296 0.37222818 0.09588081 0.11554853
0001c0 fd 53 8e bc be 80 a5 3e a7 f9 8f 3d 3b fe 20 3e
       -0.017374033 0.32324785 0.07030039 0.15721981
0001d0 8d 57 0b be b4 b1 4b 3d 7c ea e0 bd f4 e8 89 bd
       -0.13607617 0.049730018 -0.10982224 -0.067338854
0001e0 ab 76 c3 be ed 5b db 3c 5d f5 7e 3d 86 03 1d 3d
       -0.38176474 0.026777232 0.062245715 0.03833344
0001f0 46 c4 02 3f 5d 6f 34 bf 63 f9 67 3e 44 2a 10 bf
       0.5108074 -0.70482427 0.22653727 -0.5631449
000200 91 a6 02 3e 24 e7 16 bf ab 1f 02 3f 01 0c e3 3e
       0.12758853 -0.5894644 0.5082957 0.44345096
000210 eb 69 6f 3e 40 64 01 3e 26 0e 33 3e 4c ff aa be
       0.23380248 0.12635899 0.17485866 -0.333979
000220 f5 5d 64 bf 83 53 70 be 4c 36 b0 be e7 33 53 3d
       -0.8920587 -0.23469357 -0.34416425 0.05156317
000230 e2 83 80 3f cb 1a 7f 3e 24 97 2e 3f 15 60 1a bf
       1.0040247 0.24912564 0.6819937 -0.6030286
000240 6e da 44 3f 5d e2 a6 3d cd 46 6a be 4b 7d a6 be
       0.768958 0.08148644 -0.22878571 -0.32517466
000250 7f 27 de 3d f2 c5 58 3c 6e 97 d8 3d 32 65 0b be
       0.10847377 0.013230788 0.10575758 -0.13612822
000260 3c 39 5b bf de fc 07 bf 36 3f 92 bd 19 da 43 3d
       -0.8563421 -0.5312022 -0.07140963 0.047815416
000270 a5 37 9c 3e ef b5 ee 3e ce ee 48 bf c9 77 16 be
       0.30511203 0.4662318 -0.7848939 -0.14694132
000280 90 1e 48 3d 29 a7 cf 3e 79 da 17 bf 68 b2 26 3d
       0.04885727 0.4055722 -0.5931774 0.040697485
000290 bb a2 8d be 09 36 42 3c 02 f9 08 bf e5 fb 91 be
       -0.27663216 0.011853703 -0.53504956 -0.28512493
0002a0 1f 13 4d be 77 52 81 be a9 00 d5 be 14 e5 2f 3e
       -0.20026825 -0.25258228 -0.41602066 0.1717723
0002b0 9d 63 85 bd 47 55 17 3e 21 83 69 3f 33 cf e4 3b
       -0.0651314 0.14778624 0.9121571 0.006982708
0002c0 ce 7d 20 bf e2 60 ec bc 56 de 71 3e 3e 4e 81 3e
       -0.6269196 -0.028854791 0.2361997 0.25255007
0002d0 ef 4a 66 bd 88 c9 24 bf 5a 96 01 3e d9 c8 32 3d
       -0.056223806 -0.6437001 0.12655011 0.043648575
0002e0 54 cd 24 bf 26 46 5b 3f 52 de 19 3f 72 00 80 be
       -0.64375806 0.85653913 0.6010486 -0.2500034
0002f0 18 37 44 bd b9 e6 4f 3e fe 3a 7e be 10 40 fe 3d
       -0.047904104 0.20302857 -0.24827191 0.12414563
000300 84 44 36 3f c9 a3 dd 3e 33 c4 f9 be e4 5c 35 3f
       0.71198297 0.4328902 -0.487825 0.70844865
000310 63 13 61 3e 18 01 a9 3e fe 65 19 3f d0 87 20 be
       0.21980052 0.33008647 0.5992125 -0.15676808
000320 92 53 9c 3e 71 17 bc be a9 45 30 3e ae 67 15 3e
       0.3053251 -0.36736634 0.17214073 0.14590332
000330 40 b8 86 3e 4e 6a ba 3f f9 5a 44 3f 04 61 c5 3e
       0.26312447 1.4563692 0.76701313 0.3855058
000340 ec b9 bb 3e f1 b8 8b bf fd f8 74 3c 95 6a 4a 3e
       0.36665285 -1.0915815 0.014951942 0.1976722
000350 3f 7b cb be 9f d5 9a be 2a 0a 62 3f 6e 16 14 3f
       -0.39742467 -0.30241105 0.8829676 0.57846725
000360 28 98 09 be 14 2f d2 be 39 07 96 be 14 17 77 3e
       -0.13436949 -0.41051543 -0.29302385 0.24129897
000370 77 33 65 bd 05 ab 23 3f b4 3a 3e 3e e1 38 f1 3d
       -0.055957284 0.6393283 0.18577081 0.11778427
000380 82 e8 fb be 61 05 91 3e 68 3b eb 3d 41 dd 86 3e
       -0.49200827 0.28324416 0.1148594 0.26340678
000390 e2 61 1a bf 7c df 28 bf a6 df 31 3f d0 64 98 3e
       -0.6030561 -0.6596601 0.69481885 0.29764414
0003a0 33 e6 b4 3e 1c 8c 62 3e 99 e3 96 3e e2 ce 97 3e
       0.35331878 0.2212376 0.29470518 0.29650027
0003b0 06 30 33 bc 30 4e 10 3e 8f 82 ac 3e 9a 72 eb 3d
       -0.010936743 0.14092326 0.33693358 0.11496468
0003c0 61 8d 29 3f c5 fd 8a 3e 63 05 4b bd 78 2d 46 3f
       0.6623135 0.27146736 -0.049565684 0.7741313
0003d0 71 f9 32 3f 82 97 5c 3e 8d f2 ab be f3 29 15 bf
       0.6991187 0.2154217 -0.3358349 -0.58267134
0003e0 91 55 9a 3e e8 04 e0 be b2 e6 21 3e ba 59 0a bf
       0.30143407 -0.43753743 0.1581066 -0.5404316
0003f0 89 54 17 be eb 30 aa 3e 2d 84 a0 3e a2 bd 09 bf
       -0.14778341 0.33240446 0.31350842 -0.5380498

network.0.bias f4 [128]
000000 36 fa cd 3d b3 fa c3 3d 22 02 83 3d d5 3a 42 3c
       0.100574896 0.095693015 0.06396891 0.011854847
000010 e5 86 d3 3d 47 35 86 3d d9 65 97 3d 0c 66 bd 3d
       0.103284635 0.065531306 0.07392473 0.092479795
000020 52 84 b1 3d 14 77 be 3d 77 cf 4e 3d 49 0c 13 3d
       0.08667816 0.09300056 0.050490823 0.035900388
000030 e1 3e 47 3d ed 23 a8 3a 52 96 b6 3d 66 5f cf 3d
       0.04864395 0.001282809 0.0891539 0.10125618
000040 48 36 c4 3d ab 10 8b 3d 18 20 a8 3d 2e c8 21 3c
       0.09580666 0.067902885 0.082092464 0.009874387
000050 9d ae 80 3d 2d b7 ac 3d 71 98 3b 3d b0 26 8a 3d
       0.06283305 0.084333755 0.045799676 0.0674566
000060 88 f0 83 3d 5b 8c a5 3d 6e f3 c1 3a 5f 9f 9c 3d
       0.06442362 0.08083411 0.0014797279 0.07647585
000070 ed e6 c8 3d aa 6a c3 3d 9b f4 aa 3d 4b 19 d4 3d
       0.098096706 0.09541829 0.08347436 0.10356387
000080 20 74 f1 3d 0f db a3 3d 35 ac ae 3d 6b 6f 02 3e
       0.11789727 0.080007665 0.0852894 0.12737815
000090 fe e8 d0 3d 12 ab f8 3d 4f 72 b9 3d f0 5d 05 3d
       0.1020069 0.12142004 0.09055006 0.03256029
0000a0 65 66 d6 3d de d1 b4 3c 17 dc f5 3d c3 2e eb ba
       0.10468749 0.022072729 0.120048694 -0.0017943013
0000b0 ac 8f 5e bd ee 34 92 3d 9b d6 c3 3d a3 9f e9 3d
       -0.054336235 0.07139002 0.09562417 0.114074014
0000c0 74 59 a1 3d 82 d9 06 3e 7c b9 5b 3c 1c b6 b8 3d
       0.0787839 0.1316891 0.013410922 0.090191096
0000d0 52 68 18 3e 86 bf 99 3d 5e 77 b4 3d 16 b3 d6 bc
       0.14883545 0.07507233 0.0881183 -0.026208442
0000e0 48 2a 93 3d 80 d9 8b 3d 66 0e fd 3d 41 4f c5 3b
       0.07185799 0.06828594 0.12356262 0.0060214107
0000f0 d7 50 c5 3d a8 1f 86 3d 63 d5 b9 3d e8 2c e8 3d
       0.096345596 0.06549007 0.090739034 0.1133669
000100 03 fd a6 3d 01 60 df 3d ad da 8b 3d 0e c7 b7 3d
       0.08153727 0.10906983 0.068288185 0.089735135
000110 48 84 b3 bc df ee 5b 3d 3b 52 99 3d 82 44 63 3d
       -0.021913663 0.053694602 0.07486387 0.055485256
000120 a7 9a 91 3d 8e 30 70 3d 6f d4 11 3e 56 b2 d4 3d
       0.07109576 0.058640055 0.14241193 0.103855774
000130 7a 48 bd 3d f5 dd 50 3d cd 00 e2 3d 81 af f7 3c
       0.092423394 0.050992925 0.11035309 0.030235054
000140 95 76 29 3d cb 8c 18 3d 52 46 02 3e 57 e3 69 3d
       0.041372854 0.037243646 0.12722138 0.057101574
000150 9c 6d 02 3c dc 6a 4f 3d 01 5f ce 3d 4b 93 85 3d
       0.007960703 0.05063902 0.10076714 0.065222345
000160 85 83 a8 3d 2a d7 87 3d 29 0d c6 3c 2d 74 8a 3d
       0.0822821 0.06632836 0.024176197 0.0676044
000170 f3 ec ca 3c 22 6f 4e 3c fa 33 bf 3d a5 cb c3 3d
       0.02477119 0.012599738 0.093360856 0.095603265
000180 8c 3d df 3d 5d f8 f9 3d ab 06 f6 3d 9e 18 d1 3c
       0.10900411 0.12205575 0.120129906 0.025524434
000190 28 d6 c8 3d ed d6 01 3e f9 8c 8a 3d d9 f0 e1 3d
       0.09806472 0.12679644 0.0676517 0.11032266
0001a0 5a d1 02 3e f9 f7 c8 3d b2 88 6c 3d 47 a3 a2 3d
       0.12775174 0.09812922 0.05774755 0.07941299
0001b0 40 1f a0 3d 18 9a 4d bc 76 ae 07 bc 4d 29 fa 3d
       0.078184605 -0.012548946 -0.008281341 0.12214909
0001c0 72 4b 3f 3d 87 f8 81 3d 47 7c 01 3d 90 cd 96 3d
       0.04670281 0.06346231 0.03161266 0.07363427
0001d0 02 93 ac 3d 05 37 39 bd f6 e8 b6 3d 0f 17 be 3d
       0.08426477 -0.045218486 0.089311525 0.09281742
0001e0 aa b9 c6 3c 6c 41 ca 3d b5 25 58 3d c1 d9 96 3d
       0.024258453 0.098757595 0.052770335 0.07365752
0001f0 84 93 0f 3d 00 87 48 bd b3 cc 9d 3d 37 04 bb 3d
       0.03505279 -0.04895687 0.07705059 0.09131663

network.2.weight f4 [128, 128]
000000 6c 50 6b 3e 04 06 15 3d 83 e2 ed bc 6b 68 4d 3d
       0.22979897 0.03638269 -0.029038673 0.05014841
000010 19 58 0f be 4b 16 22 3e 81 45 b8 3d 51 a3 ac 3c
       -0.1399845 0.15828817 0.08997632 0.02107397
000020 3a 7c 67 3e 05 c8 80 be 11 1e 1c bb 74 b3 4b 3e
       0.22605982 -0.25152603 -0.0023821632 0.19892675
000030 55 34 ba bc 19 3a 31 bd 79 18 c0 3c d5 69 97 3d
       -0.022730032 -0.043268297 0.02344917 0.07393233
000040 5a 3e a7 bc 27 35 a0 bc b6 50 19 be fb 3d 1a be
       -0.020415474 -0.019556595 -0.14972195 -0.15062706
000050 62 c2 95 be 1d cc 2a bd 26 24 c9 bb bd ac 56 3d
       -0.29249865 -0.041698564 -0.0061383424 0.05241083
000060 07 8f 14 3d b2 a1 81 3e 72 fa f0 3d 52 cf b7 bc
       0.036269214 0.25318676 0.11766519 -0.022437725
000070 e0 36 2f 3e 8b fe 2e 3e 17 6c 8a bd a7 e0 cd 3c
       0.17110777 0.17089288 -0.06758898 0.025131537
000080 4d ca 28 3e fa ff 79 3e 72 bb bf bb e3 7d 47 3d
       0.16483422 0.24414054 -0.0058512026 0.04870404
000090 05 08 a0 bc dc b7 99 3d cd 2d 8f 3e fd b7 c7 3c
       -0.019535074 0.075057715 0.2796463 0.024379725
0000a0 10 1a c7 bc cf a1 9a bc 08 36 89 3d 51 60 14 3d
       -0.02430442 -0.018875984 0.06699759 0.036224667
0000b0 f0 22 a0 3d 75 15 51 be 6a b2 73 be c8 04 6b 3e
       0.07819164 -0.20418341 -0.23798528 0.22951043
0000c0 1a 6e 59 3e ed c1 1d bc 82 cc 6f bd 94 d2 b1 bd
       0.21233407 -0.009628755 -0.058544643 -0.08682743
0000d0 e6 e7 17 3e 72 0f b8 bd b5 4e 2c bd 11 16 b9 bc
       0.14834556 -0.08987321 -0.04206725 -0.02259353
0000e0 00 c9 f6 3d ff 6e 0e be 3e a0 54 be b4 f9 63 3e
       0.120500565 -0.13909529 -0.20764253 0.22263223
0000f0 dc 22 9f 3c 04 c1 e2 3c ff 59 ac bd 13 0f 48 3e
       0.019425802 0.027679928 -0.08415603 0.19537
000100 44 a4 75 3e c6 d1 9e bd b9 81 48 3e 21 1e 80 3c
       0.23988444 -0.07754855 0.19580735 0.015639367
000110 3c 67 48 3d 49 48 15 be 08 70 32 3e cd 5f 0a 3e
       0.048926577 -0.14578356 0.17425549 0.13513108
000120 8d 5e c0 bd cb d1 82 bc cd 87 99 be 79 fc 14 3e
       -0.09393034 -0.015969178 -0.2998642 0.14549436
000130 2f 51 71 bd c6 23 5c 3c e7 ff 01 3e d7 3d 55 3e
       -0.058915313 0.013436263 0.12695275 0.20824371
000140 48 23 3a 3e 76 1d 3c 3e b1 8b 1c 3c 21 ff d2 3d
       0.18177521 0.18370613 0.009554789 0.10302568
000150 82 98 a2 3c 6b c0 cf 3d c8 cc 21 bd ea 68 c0 bb
       0.019848112 0.10144123 -0.039501935 -0.0058718817
000160 16 87 e8 bd 12 4f 0d be dc ed 95 be 9a c2 4e bd
       -0.113538906 -0.13799694 -0.29283035 -0.050478555
000170 7b 4d 28 3e 5f f0 8e 3e c4 46 52 3c 69 08 94 3b
       0.16435806 0.27917764 0.012834255 0.004517604
000180 32 a3 0e 3c ad f5 b2 3c 54 af ce bd ef be 61 3e
       0.008705901 0.021845663 -0.10092035 0.22045492
000190 06 9a 57 bd ca 52 b0 3e 73 41 3c be 78 95 70 3d
       -0.052637123 0.34438163 -0.18384342 0.058736295
0001a0 62 40 95 be 79 a2 1c bd 6e da d3 3d cc 85 10 3c
       -0.29150683 -0.038240883 0.103443965 0.008820962
0001b0 f5 8d 74 3d 67 61 87 3e 0d 2c e4 3d 44 c2 39 3d
       0.059705693 0.264415 0.111412145 0.04535128
0001c0 ec 2f 3f bd 1c ce 83 3d 2c df 7c bd 66 57 2e 3d
       -0.04667656 0.064357966 -0.06173627 0.04256382
0001d0 a6 ab 21 3e f9 03 26 be 0d 42 c1 3d 02 93 a9 3e
       0.15788135 -0.16212453 0.09436426 0.3311997
0001e0 2a 68 cf bb 39 1d ec bd 13 27 f5 3d 77 c0 e4 bc
       -0.006329556 -0.11529011 0.119703434 -0.027923806
0001f0 6e c3 26 be ad f6 5c bc da 3b 52 3e 21 c5 ab bd
       -0.16285488 -0.013486546 0.20530644 -0.08387209
000200 09 0d 0d bd a6 de c0 bc 84 a0 15 3e 1f 78 37 bc
       -0.03443626 -0.023543667 0.14612013 -0.011198073
000210 5f 61 8d bd d4 87 10 3e 47 fb 66 3d a6 c3 08 be
       -0.06903338 0.14114314 0.05639198 -0.13355884
000220 af 03 4a bd a4 a1 c5 3d 82 f4 7f 3e 78 4c 0b b8
       -0.04931992 0.09649971 0.24995616 -3.32114e-05
000230 18 e9 90 bd 5c f6 22 be 1d bb 32 3e dc 29 18 bd
       -0.07075709 -0.15914291 0.1745419 -0.037149295
000240 ba b2 0a 3e 6d ba 6a 3e 83 bb 30 3c 12 5d 57 be
       0.13544741 0.22922678 0.010786894 -0.21031597
000250 48 68 e8 3c 72 6c 7d 3e df 41 11 3e a7 aa 2e 3e
       0.028370038 0.247484 0.14185284 0.17057286
000260 3e b1 05 be be 37 ae bd e7 e5 a2 3d 8f 12 52 3d
       -0.13055894 -0.08506726 0.07954007 0.05128723
000270 57 a2 b8 bc 50 2b 18 be a1 6a 91 bd dd 9f ea 3d
       -0.022538347 -0.14860272 -0.07100416 0.11456273
000280 0a f7 7f bd f8 82 89 3e e0 91 9b be 4a 1c 96 bc
       -0.062491454 0.26857734 -0.3038473 -0.018324036
000290 2f cc 22 3d db 6e 5a 3d 57 75 25 3d 78 39 db bd
       0.039745506 0.053328376 0.040395107 -0.10704321
0002a0 ba e5 1c 3d 9b d4 41 3d 11 67 91 3c d1 b3 94 3e
       0.03830502 0.047321897 0.017749341 0.2904344
0002b0 fc 29 b0 3c f6 92 84 3d 4c 70 ed bd 08 45 31 bd
       0.021504395 0.06473343 -0.115936846 -0.043278724
0002c0 32 dc 72 3e 0f 59 cf 3d a3 ab 36 3e 92 f6 9d 3e
       0.2371681 0.101244085 0.17838912 0.3085218
0002d0 25 53 22 be 6c 06 bd 3e 81 47 e1 3d 14 eb 2c 3e
       -0.1585203 0.36918962 0.109999664 0.1688655
0002e0 07 3d 1b 3e dc c7 2a 3e 36 d6 50 3d 0f 41 a1 be
       0.15159999 0.16677803 0.050985537 -0.31494948
0002f0 df 2f 28 be 3d b1 5a 3e 32 6b 4a be 71 45 6d 3e
       -0.16424511 0.21356674 -0.19767454 0.23171021
000300 d7 17 54 3e 12 f1 02 3e 4a a1 07 3d e6 47 ab b9
       0.20712219 0.12787274 0.0331128 -0.0003266923
000310 17 02 c9 3d bd b2 99 bb 44 b6 2f be d9 2b 1a bc
       0.09814852 -0.0046904967 -0.17159373 -0.009409868
000320 e6 36 6a bd 98 51 02 3e 79 8d 24 bc cf 81 75 3d
       -0.05718126 0.12726438 -0.010043495 0.05993825
000330 14 d3 b3 3e 34 15 5e bc fb d0 2f 3d 49 c2 e6 3c
       0.35121977 -0.01355486 0.04292391 0.028168814
000340 33 23 19 be 90 84 19 be 8c ec 1d 3e 29 2d 57 be
       -0.14954834 -0.14991975 0.15422267 -0.21013321
000350 22 30 13 3e 17 57 5f bd 5f f3 23 be 79 90 0c 3e
       0.1437383 -0.054526415 -0.16010807 0.13726987
000360 a9 55 bb bb f9 de f3 bc ad b5 1b be 0b 0b e5 3d
       -0.0057169986 -0.029769408 -0.15206023 0.11183747
000370 39 64 66 bc 23 5c 7e bc 78 b1 f3 3b 58 7f b3 bd
       -0.014061981 -0.015524897 0.0074369274 -0.08764523
000380 c6 45 e7 bd 45 66 b2 bd 65 99 1c be 32 dc 01 3e
       -0.11292605 -0.087109126 -0.1529289 0.12681654
000390 5f 13 a0 bd 11 70 95 3d db bb 9c bd 4b be b2 3d
       -0.07816195 0.072967656 -0.07653018 0.08727702
0003a0 6a 84 72 be 4d 8e 85 3c e2 37 9c be a3 35 da bb
       -0.23683324 0.016303206 -0.30511385 -0.006659226
0003b0 d4 73 01 3e db 74 10 3d 5d da 22 be 26 d4 45 be
       0.12641841 0.035267692 -0.15903611 -0.1931921
0003c0 db b0 6f bd 64 b2 61 be 6e c9 71 3e 95 99 27 be
       -0.058518272 -0.22040707 0.23611996 -0.1636718
0003d0 ee 15 07 3e 97 87 2c 3d b1 9d 20 be 49 d7 02 bc
       0.1319196 0.042121496 -0.15685154 -0.007985898
0003e0 db 51 e0 3d a2 63 da 3d 7e a3 fb 3d db 29 e9 bd
       0.10953113 0.10663535 0.12287043 -0.113849364
0003f0 29 23 c4 bd b4 42 da 3d cc 13 65 3e e0 f5 4f be
       -0.09577019 0.10657254 0.22370833 -0.20308638

network.2.bias f4 [128]
000000 df 45 db 3c a4 21 57 bc 00 00 00 00 68 db 17 3d
       0.026766716 -0.013130579 0.0 0.037074476
000010 08 19 50 3d 6d cf 05 3d e8 cf e8 bb c2 cb b0 ba
       0.05080512 0.03266852 -0.0071048625 -0.0013488459
000020 2b a1 9d bc f6 c6 84 3d df a8 c0 3d 55 5d 80 3d
       -0.01924189 0.06483261 0.094072096 0.06267802
000030 00 00 00 00 d7 90 68 ba 9b 8f 0b 3d a3 45 89 3d
       0.0 -0.00088716805 0.0340725 0.06702735
000040 65 8f 9f bc b4 b7 26 3d 42 47 ea 3c 50 8e 05 3d
       -0.019477556 0.040702537 0.028598431 0.032606423
000050 24 16 61 bc 44 63 8a 3d 69 e4 b9 3d 13 b9 b9 bc
       -0.013738189 0.06757215 0.09076769 -0.022671258
000060 aa ce b2 bc 94 ed 8f 3d 99 c1 97 3d 2c 53 ae 3d
       -0.02182706 0.07027736 0.07409973 0.085119575
000070 00 7e 7b 3d de fb 5c 3c 88 ed f5 bc 32 84 9f 3d
       0.06139946 0.013487784 -0.03002049 0.07788886
000080 3c c4 83 bc f8 1d 4f 3d ef cd 43 bc bb f6 cb bc
       -0.016084783 0.05056569 -0.011950954 -0.024897924
000090 70 17 b5 3c 8e 65 81 3d c0 6e 04 bd da 51 8c 3d
       0.022105902 0.06318198 -0.032332182 0.068515494
0000a0 f4 ef 64 3d 16 46 28 3d e4 e0 a3 3d 48 8f 1a bd
       0.0558929 0.041082464 0.08001879 -0.0377343
0000b0 29 21 e1 3c 56 35 01 3c 31 df a9 bb 11 87 90 3d
       0.027481632 0.007886251 -0.005184077 0.07057012
0000c0 a2 89 7b 3d 9b 6b d2 bb 6b 90 59 bc a0 c2 ee 3b
       0.061410554 -0.006421519 -0.013279061 0.0072863847
0000d0 8e 10 11 3d 05 40 a2 3d 16 6c d7 bb 36 54 e4 3d
       0.03541618 0.07922367 -0.006574164 0.111488745
0000e0 29 c3 7b 3d b6 07 28 bc ec 16 95 3d 4d 4f a4 bc
       0.061465416 -0.010255745 0.072797626 -0.020057345
0000f0 ed 32 8d bc 79 da 8b bc 72 c4 b7 3d b3 98 a5 3d
       -0.017236197 -0.01707195 0.08973016 0.08085766
000100 ca c1 67 3d fd 3a 79 3d 3d b5 43 3d 69 4c 8d 3d
       0.056581296 0.06084727 0.047780264 0.0689934
000110 48 8f 5d 3d 27 eb a5 3d e3 a0 b6 3d 61 41 ff bb
       0.05409172 0.081014924 0.089174055 -0.007789776
000120 7c c4 c2 3d f8 88 b2 bc 7a 89 9a bc 50 53 84 3d
       0.09510133 -0.021793827 -0.018864382 0.06461203
000130 37 6f 90 3d 8c 96 99 3d 55 e8 ef 3c 7e e4 05 bc
       0.070524625 0.07499418 0.02928559 -0.008172153
000140 b5 57 90 3d 1f 78 73 3d 7f c6 cd 3c 7f f0 08 3d
       0.07047979 0.05944073 0.025119064 0.03343248
000150 5e 31 39 bc 0d ee 8e 3d 70 75 51 3d 73 3a 84 3d
       -0.011303274 0.06978998 0.051137388 0.06456461
000160 8c ac 3b bc 30 88 0f bc 4a 41 70 3d aa e4 d3 bc
       -0.011454713 -0.008760497 0.058656015 -0.025865871
000170 c4 7e e1 bb 09 5b 73 bd a9 3a 57 bc b7 31 62 3b
       -0.0068815667 -0.05941299 -0.013136544 0.0034514496
000180 22 69 ae 3d 65 e9 a8 3d de 10 7a bc 71 a9 94 3d
       0.08516146 0.082476415 -0.0152628105 0.07258881
000190 09 73 b0 3d 94 b5 07 bb 57 e3 85 3d 81 d5 17 3c
       0.08615691 -0.0020707594 0.06537502 0.009267212
0001a0 72 c3 11 bc 31 f3 a0 bc c8 58 09 bc ff 96 a6 bc
       -0.008896695 -0.019647213 -0.0083829835 -0.020335672
0001b0 29 94 6f 3d cc 06 5c 3d 1d 0f a6 bc 41 ef 6f 3d
       0.058490906 0.05371742 -0.020270878 0.05857778
0001c0 ea 0a a6 3c 4d d1 52 3d 50 92 8f 3c 51 6c b7 3d
       0.020268876 0.051469136 0.017525822 0.089562066
0001d0 59 5e 12 bd 9a 05 9f 3d e3 5d 93 bc 76 da 86 3d
       -0.03573451 0.0776474 -0.017989105 0.06584637
0001e0 5d 22 16 3d 57 8d b5 3d 9e cc ae 3d e2 bf aa 3b
       0.036653865 0.08864849 0.085351214 0.0052108625
0001f0 57 02 99 3d ca 5a 58 3d 00 00 00 00 26 66 04 bd
       0.074711494 0.05282096 0.0 -0.03232398

network.4.weight f4 [6, 128]
000000 a4 e0 c2 3b 4a 12 4e be 58 11 66 be 9b 30 cf 3c
       0.0059471894 -0.20124164 -0.22467554 0.025291732
000010 be 02 5d bc b0 97 74 bd 8d 1d c0 3d b5 43 10 3e
       -0.013489423 -0.059714973 0.09380636 0.14088328
000020 eb 0a f4 3d b3 eb 75 be 23 4e 11 3e ff 81 1b be
       0.11916145 -0.24015693 0.14189963 -0.15186308
000030 66 6f 99 3d 80 3f 66 be b5 40 65 3e 30 94 fb bc
       0.07491951 -0.22485161 0.22387965 -0.03071031
000040 09 8c 45 3e e5 e9 1c be d1 2e a7 bd 35 28 1b be
       0.192917 -0.15323599 -0.081632264 -0.15152057
000050 8c 26 87 be 85 1d 34 3e 6a 31 f6 3c e4 81 50 3e
       -0.26396596 0.17589386 0.03005286 0.2036205
000060 de db 68 be 8a 04 00 be 6e 79 c6 3d c4 4c 2b be
       -0.22740123 -0.12501732 0.096911296 -0.16728503
000070 34 cf 99 bc dd 9a b8 3d f5 67 8a 3d d9 37 1a 3d
       -0.01877556 0.09013913 0.067581095 0.037650917
000080 de 70 de 3d 44 7d b1 bd f9 f1 83 bc 87 5f ef 3d
       0.108613715 -0.08666471 -0.016106592 0.11688142
000090 ae f9 1c 3e 2e ec 74 3d 51 0d 78 3d 5b 21 49 bb
       0.1532962 0.05979555 0.060559575 -0.0030690047
0000a0 73 20 9e bc 62 68 32 be 7f e0 b1 bd 4a a4 0f 3d
       -0.019302582 -0.17422631 -0.08685397 0.035068788
0000b0 3a ab be bd b0 c7 3d be 2e 3e 43 3d a7 3e 64 3d
       -0.093100026 -0.18533206 0.04766672 0.055723812
0000c0 b0 57 03 3d 51 f4 cb bd b2 d8 22 be 1b a8 05 bb
       0.032066047 -0.09958709 -0.15902975 -0.0020394388
0000d0 9f a8 34 3e 99 c8 12 be 12 b5 1d be fb 0d 13 3d
       0.17642449 -0.14334334 -0.15401104 0.035902005
0000e0 65 61 4e 3c 27 8b 04 3e 23 6c 10 be f1 c0 a2 bd
       0.012596463 0.12943707 -0.14103751 -0.07946957
0000f0 c9 f1 63 3e f0 fc d3 bd f6 69 25 3c 76 8a 21 3d
       0.22260202 -0.103509784 0.010096064 0.039438687
000100 f6 24 0c be 16 83 d6 bd ef 32 5a be 0c 62 ad bc
       -0.13685974 -0.104742214 -0.21308492 -0.021164916
000110 d6 4c 42 3e 31 62 7f 3e 81 36 e4 3d 6f 48 48 3e
       0.18974623 0.24939801 0.11143208 0.19558881
000120 99 58 f1 bc bb 48 50 3d 2c 16 01 3d 75 08 9e be
       -0.029461192 0.05085061 0.031515285 -0.30865827
000130 58 bb 89 bc d3 c2 1c be 74 33 a8 bd c1 c0 54 bd
       -0.016812965 -0.15308695 -0.08212939 -0.051941637
000140 ac 86 e0 bd ec 52 2b 3d c5 eb 00 3e 22 cd aa be
       -0.109631866 0.041827127 0.12589939 -0.3335963
000150 af a5 59 3d d2 27 58 bc bf d8 89 be ee 2b 1c 3d
       0.053136524 -0.013193088 -0.26923177 0.038127832
000160 f0 85 c4 bc 09 e8 30 3d f8 3e a4 3c 32 33 61 be
       -0.023989648 0.043190036 0.020049557 -0.21992186
000170 67 19 18 3e 2d d3 f8 bd e0 a5 8d bd d7 30 d2 bd
       0.1485344 -0.121496536 -0.06916404 -0.10263222
000180 d1 01 4c be 5e 5e 75 bd 5e a5 69 bd be ad ff 3d
       -0.19922568 -0.05990445 -0.057042472 0.124843106
000190 08 84 f8 3d fb c4 ad 3d 3c 0c e5 bd 85 de c8 39
       0.12134558 0.08484837 -0.11183974 0.00038312763
0001a0 76 fc 03 3e 6e e0 62 bd cd c2 a1 3d 3d 84 80 3e
       0.12889275 -0.055389814 0.078984834 0.2510089
0001b0 8d 93 70 3e f6 ce 5a be df bf b4 bd b4 d4 ed 3d
       0.23493786 -0.21368012 -0.08825659 0.116128355
0001c0 f1 dd 8a be ef 1a 49 be 76 cc 4e be cf 13 11 3e
       -0.27122453 -0.1963918 -0.20195183 0.14167713
0001d0 05 10 b2 3d b9 b1 46 bd 32 d9 26 3e 72 5e 0b be
       0.08694462 -0.048509333 0.16293791 -0.13610247
0001e0 b2 1b f6 3d 16 40 01 3d 4d be 88 3e 3b b3 09 be
       0.12017001 0.031555258 0.26707688 -0.13447277
0001f0 1f 65 96 3d 1a 63 2b be f2 40 85 3d 58 93 09 bd
       0.07343506 -0.16737023 0.06506528 -0.033587784
000200 b4 92 be be 54 64 46 bd fe f2 35 bd 6d 09 1a 3e
       -0.372213 -0.048435524 -0.04442119 0.15042658
000210 7e 1b 3c 3e ec 2c 6b 3e 67 97 db bd 2b f0 6c be
       0.18369862 0.22966355 -0.10722237 -0.23138492
000220 a3 d4 a7 bb 12 75 aa 3e 42 29 a6 be 53 03 2e 3e
       -0.005121784 0.33292443 -0.32453352 0.16993456
000230 94 53 d5 bd 0b 2e f7 3b 6e 88 2c 3b 1d 8c 46 3c
       -0.10416332 0.0075433305 0.0026326436 0.012118367
000240 60 fa da 3d 01 93 1b bd 18 8b 3a be 30 a2 07 3e
       0.106922865 -0.03798199 -0.18217123 0.13245463
000250 1f 4b cc be c5 bc ed bc 5c 37 08 bd 17 34 4c be
       -0.39901063 -0.029020676 -0.03325592 -0.19941746
000260 41 1c 14 be 22 39 2f be be b3 aa bd 43 89 db 3d
       -0.14463903 -0.17111638 -0.08335064 0.1071954
000270 ad ae 0c be f1 87 9a bd 88 53 0a 3e 30 5e 53 3e
       -0.13738509 -0.0754546 0.13508427 0.20641398
000280 cd 2c 04 bd 84 26 c7 bd d4 3e ed bd 52 16 0d 3b
       -0.032269288 -0.09724143 -0.11584249 0.0021528197
000290 fe 24 0e be 43 fe af 3d ba d4 c2 3c ed 52 f1 3d
       -0.13881299 0.085934184 0.023783077 0.11783395
0002a0 80 03 1f 3e 29 1f cd bd 06 bb 1b 3e 86 31 49 be
       0.15528679 -0.10015709 0.15208063 -0.19647798
0002b0 64 83 90 3e 8b cd 3f be 25 0b 8c 3e b4 fd e0 bd
       0.28225243 -0.18730752 0.27352253 -0.1098589
0002c0 52 83 e3 bc ed 69 25 bd 5d b1 fd 3d eb d8 a4 be
       -0.02777258 -0.04038422 0.12387345 -0.32196745
0002d0 e9 e3 b8 be bd ad 45 3c 8a 21 7f be f4 78 39 bd
       -0.36111382 0.012065348 -0.24915138 -0.045281366
0002e0 89 7d 29 be b2 45 0f be 1d aa 83 3d 0a f7 b4 bd
       -0.16551794 -0.1399143 0.06428931 -0.088361815
0002f0 89 a3 4a bd a2 43 e9 3c 6c 19 ff 3d 5f dc 1c 3d
       -0.049472366 0.028474633 0.12456021 0.0382961
000300 d9 67 84 3e 15 86 5d bc 21 34 22 bd d8 44 ce bc
       0.2586048 -0.013520737 -0.039600495 -0.025179312
000310 16 94 5f 3e 8c 23 9e 3c 91 4b 7e bd 81 a7 30 3e
       0.21833834 0.01930406 -0.062083784 0.17251398
000320 78 b6 8f 3e d0 20 d7 bc 07 07 8d bd 89 31 54 be
       0.280689 -0.026260763 -0.06886106 -0.20722021
000330 20 5d 85 bc 04 0f 59 3e cc 3f 1b 3e 9a c5 b0 3d
       -0.016279757 0.21197134 0.15161055 0.086314395
000340 a3 0b d5 3d a6 0a 8e be 35 95 0f 3e 75 96 a3 bd
       0.1040261 -0.277425 0.14021762 -0.07987682
000350 76 f1 88 3e 45 70 22 bd e7 3c 0b be e0 11 0b bc
       0.2674672 -0.03965785 -0.13597451 -0.008488148
000360 c2 3a 44 3e d9 da 94 bd a3 65 cf 3e a6 52 e0 3d
       0.1916304 -0.072683044 0.4050723 0.10953264
000370 1a 38 a3 bd 6c f7 a2 be 43 47 52 bc 6f e2 f3 3d
       -0.07969685 -0.31829393 -0.012834373 0.11908423
000380 f8 a4 0d bc 6e 3c 35 bd 28 2f 42 3e ce 22 01 bd
       -0.008645289 -0.044247083 0.18963301 -0.031527333
000390 db 6b 05 be 40 6c b0 3d 29 cb 63 3e a7 44 35 bd
       -0.13029425 0.08614397 0.22245468 -0.044254925
0003a0 1b 68 0b bd aa e1 10 be 0c 79 7d 3d 61 31 de 3d
       -0.03403483 -0.14148584 0.061883017 0.10849262
0003b0 af 32 0b 3d 55 6a c7 3d fb 3c 33 bb 0a eb c4 3b
       0.033983883 0.09737078 -0.002734958 0.006009464
0003c0 fb 70 0e 3c 7f ae 78 bd 21 71 ba 3e d2 8a 8a bd
       0.008693929 -0.060713287 0.36414436 -0.06764759
0003d0 94 b8 85 3d 0e e9 56 be f1 bc 37 3e 14 5a af 3b
       0.06529346 -0.20987341 0.17943169 0.0053513143
0003e0 e5 b8 58 be 2a ae 9d 3d 21 f4 c1 3e 64 06 f5 3d
       -0.21164282 0.07699235 0.37881568 0.119641095
0003f0 65 c9 59 3d de c8 42 3d d5 10 b5 bc e6 51 f4 3d
       0.05317058 0.047554843 -0.022102753 0.119296834

network.4.bias f4 [6]
000000 7a 28 d0 bc 77 5a 36 3d c6 7e b8 bc 86 d8 ae 3c
       -0.025409926 0.044519868 -0.022521388 0.02134348
000010 5a 3c 89 bd d3 77 60 bd
       -0.06700964 -0.054801773
