DRL_113-2/DRL-Assignment-1/dqnetwork.pt (torch, 23964 bytes, 6 tensors)

network.0.weight f4 [64, 11]
0	0x3f449abc	0.76798606
1	0x3f304613	0.68856925
2	0x3c79df42	0.015250983
3	0xbdf60edb	-0.12014552
4	0xbec6c0c4	-0.38818944
5	0xbdf5640a	-0.119819716
6	0x3f478e48	0.7795148
7	0x3dc0575f	0.09391665
8	0xbdf0ee2e	-0.11764179
9	0xbd09b5e2	-0.033620723
10	0x3ddc7cbf	0.10765981
11	0x3f5d7bfc	0.8651731
12	0x3f5f731e	0.8728503
13	0x3ee38452	0.4443689
14	0xbf329ff5	-0.69775325
15	0xbf268bb5	-0.65056926
16	0x3ef8cccd	0.4859375
17	0xbd588bdd	-0.05286776
18	0x3d90a02b	0.070617996
19	0xbe370018	-0.1787113
20	0xbe8ff6cf	-0.28117988
21	0x3f321ca2	0.6957494
22	0x3e232968	0.15933764
23	0x3ec65328	0.38735318
24	0x3dc05206	0.09390645
25	0x3f03fa6d	0.51553994
26	0x3efb533b	0.49086937
27	0xbd90b974	-0.070666224
28	0xbee71e7d	-0.45140448
29	0xbf0ba495	-0.5454801
30	0x3f3cc91b	0.7374436
31	0xbe81a1cf	-0.25318763
32	0x3d304427	0.043033745
33	0x3f2d3582	0.6765977
34	0x3f025c8c	0.50922465
35	0xbea32281	-0.31862262
36	0x3f20d597	0.6282591
37	0xbf058309	-0.5215307
38	0xbece9316	-0.40346593
39	0xbecc77a4	-0.3993503
40	0x3db15428	0.0865863
41	0xbe2d6887	-0.16934405
42	0x3e9fd930	0.31220388
43	0x3dc355db	0.0953786
44	0x3f30cde8	0.6906419
45	0x3e49357d	0.1964931
46	0x3e89b440	0.26895332
47	0x3eac62a2	0.33669
48	0x3f1ef0c9	0.6208616
49	0x3ede991e	0.43476194
50	0x3f16c262	0.58890355
51	0xbee107fe	-0.4395141
52	0xbed854d2	-0.42252213
53	0x3df1cfdd	0.11807225
54	0xbebc061c	-0.3672341
55	0xbf728262	-0.947302
56	0xbf044595	-0.51668674
57	0x3ed1c274	0.40968668
58	0x3f205cfa	0.6264187
59	0x3d71e4cd	0.059056092
60	0x3e4509a8	0.19241965
61	0xbe6ea740	-0.23305988
62	0xbf064539	-0.52449375
63	0x3ad3a548	0.001614728
64	0x3dc0ac55	0.0940787
65	0x3ecce9e0	0.40022182
66	0xbeda1e4b	-0.42601237
67	0x3f92a42e	1.1456354
68	0xbe36a074	-0.17834646
69	0xbf1f1595	-0.62142307
70	0x3ea62e56	0.32457227
71	0x3e2b3e7d	0.16723056
72	0x3e602b04	0.21891409
73	0xbec6d319	-0.3883293
74	0x3bdd34fe	0.006750702
75	0x3e869935	0.26288763
76	0xbf0187ed	-0.5059803
77	0xbf466340	-0.77495193
78	0xbf006867	-0.50159305
79	0x3ece269d	0.40263835
80	0x3f15ad1f	0.58467287
81	0xbeb0add5	-0.34507623
82	0xbec28b98	-0.37997127
83	0xbea1ef4e	-0.31627887
84	0x3eb9b3ee	0.36270088
85	0x3eae8958	0.3408916
86	0x3f3dc9c8	0.7413602
87	0x3e9ec626	0.3101055
88	0xbf00d793	-0.5032894
89	0x3efb2e9a	0.49058992
90	0x3f6af228	0.9177575
91	0xbeff4aa1	-0.49861625
92	0x3f2e355a	0.6805016
93	0x3e3b6c69	0.18303074
94	0xbe5a1029	-0.21295227
95	0x3ed04036	0.4067399
96	0xbe7dc798	-0.2478317
97	0x3ecd25f4	0.40068018
98	0x3ee35e33	0.44407806
99	0x3f12a1af	0.5727796
100	0x3e797114	0.24359542
101	0x3f865e53	1.0497535
102	0x3ea20a85	0.3164865
103	0x3ee7a609	0.45243862
104	0x3e3b2b61	0.18278266
105	0x3e970f50	0.2950387
106	0x3ecae057	0.39624283
107	0xbefe6bb2	-0.4969154
108	0xbcc99947	-0.024609221
109	0xbeef4f8f	-0.46740386
110	0x3f6005bb	0.87508744
111	0x3f085b89	0.5326467
112	0x3e0769d0	0.13223958
113	0x3eb9d78f	0.3629727
114	0x3f0fd041	0.56177145
115	0xbf3e8709	-0.744248
116	0x3f362541	0.71150595
117	0xbe577d8d	-0.21043988
118	0x3f66da1e	0.9017657
119	0x3f34497d	0.70424634
120	0x3f37c5ab	0.7178599
121	0x3f5e9bbc	0.8695638
122	0x3d3209f5	0.043466527
123	0x3eadb1dc	0.33924758
124	0xbea06197	-0.31324455
125	0x3f1c4b2d	0.6105221
126	0xbec0f87f	-0.37689587
127	0xbf0208a6	-0.50794446
128	0xbf2ec24b	-0.6826522
129	0xbec08c5f	-0.37607095
130	0x3f13accf	0.5768556
131	0x3f18ddbd	0.59713346
132	0x3ec88f35	0.39171758
133	0xbe6828cc	-0.22671813
134	0x3f81ac72	1.0130751
135	0xbf6a3f51	-0.91502863
136	0x3da322f5	0.07965652
137	0x3e5d7746	0.2162753
138	0x3d92f560	0.07175708
139	0x3e877f7d	0.26464453
140	0xbe434ed7	-0.19073044
141	0x3f42ed52	0.7614337
142	0xbeac6466	-0.33670348
143	0x3f50230f	0.81303495
144	0x3ee0f0c8	0.43933702
145	0xbf4b9a41	-0.7953225
146	0x3e885f14	0.2663504
147	0xbe8020de	-0.25025076
148	0x3ef47fac	0.47753656
149	0xbee6f42e	-0.4510817
150	0xbd074fe6	-0.03303518
151	0x3c4a473a	0.012346083
152	0xbdc3e2db	-0.095647536
153	0xbf1e2350	-0.6177263
154	0x3ed9986e	0.42499107
155	0xbeaf398f	-0.342236
156	0x3e84f549	0.25968388
157	0xbdd38995	-0.10328976
158	0xbdbf2e6e	-0.09335028
159	0x3f07e356	0.5308126
160	0xbefb540d	-0.49087563
161	0x3f37f3a9	0.7185617
162	0xbf315f06	-0.6928562
163	0x3f38c252	0.7217151
164	0x3f04bb65	0.5184844
165	0x3f649e8a	0.8930441
166	0x3f31cd52	0.6945392
167	0x3f3b336c	0.7312534
168	0xbf43351b	-0.7625291
169	0xbeb71995	-0.35761705
170	0xbc472eb8	-0.012157135
171	0xbe65c011	-0.22436549
172	0xbe9f704f	-0.31140372
173	0x3e040a9e	0.12894675
174	0x3ed19946	0.4093725
175	0x3eb6ed03	0.357277
176	0x3f0684d8	0.52546453
177	0xbec207f3	-0.3789669
178	0xbf2e5116	-0.6809248
179	0x3f2ba198	0.6704345
180	0x3e1f7f45	0.15575893
181	0xbf48eab3	-0.7848312
182	0xbee4a9e9	-0.4466088
183	0x3f2ff727	0.687365
184	0xbe43fb2b	-0.19138782
185	0xbee61da7	-0.44944498
186	0xbef74325	-0.48293415
187	0x3ecfd0b6	0.4058892
188	0x3f4f3410	0.80938816
189	0x3f56b7f4	0.8387444
190	0xbf53a939	-0.8268009
191	0xbd5d7de2	-0.05407513
192	0xbede3827	-0.43402216
193	0xbf1c8479	-0.6113964
194	0xbeab2c1d	-0.33432093
195	0x3de9f450	0.11423552
196	0x3ebaad3e	0.36460298
197	0xbde37d28	-0.11107856
198	0x3f55aba3	0.8346502
199	0x3efc77b2	0.4931007
200	0x3e2a266d	0.16616221
201	0xbeccda82	-0.40010458
202	0x3d8b7daf	0.068110816
203	0x3ed24817	0.41070625
204	0xbf06c172	-0.52638924
205	0x3ec45e17	0.38353035
206	0xbd3dcee5	-0.046339888
207	0xbe677b97	-0.2260574
208	0x3ecba25e	0.39772314
209	0x3e149dd9	0.14513339
210	0x3f3cfa7d	0.73819715
211	0x3ee83298	0.453511
212	0x3f3281d0	0.6972933
213	0x3f311006	0.69165075
214	0xbe351782	-0.17684749
215	0xbf0db488	-0.55353594
216	0x3f04e249	0.51907784
217	0x3f2a26d2	0.66465485
218	0xbe8f1ce9	-0.27951744
219	0xbe41bc86	-0.18919572
220	0xbf056675	-0.5210946
221	0xbe8419cd	-0.25800934
222	0x3f2269d7	0.6344275
223	0xbea55075	-0.32287946
224	0xbe13f8f3	-0.14450435
225	0x3e31ca6a	0.17362371
226	0xbe62fc18	-0.22166479
227	0x3ecb1541	0.39664653
228	0x3f1e87c0	0.6192589
229	0xbf2b311e	-0.6687182
230	0xbf1456ff	-0.57945246
231	0xbea4a498	-0.32156825
232	0x3f5769fb	0.8414609
233	0xbebb6dbd	-0.3660716
234	0x3f2e3fb6	0.68065965
235	0xbee62b7a	-0.44955045
236	0x3ea2dcda	0.3180912
237	0x3f1c696e	0.6109837
238	0x3e6a309a	0.22870103
239	0xbf3e8389	-0.74419457
240	0x3d5ba963	0.053628337
241	0xbecb3780	-0.3969078
242	0xbe336668	-0.17519534
243	0x3f38ae84	0.7214129
244	0xbf1dd413	-0.61651725
245	0xbf3e3d51	-0.7431231
246	0xbe00f5cb	-0.12593763
247	0xbf2432ed	-0.64140207
248	0x3e669c40	0.22520542
249	0xbe8934d3	-0.26798114
250	0xbdfcc1e7	-0.123416714
251	0x3eced059	0.40393332
252	0xbe9b070c	-0.30278814
253	0xbe9243bf	-0.2856731
254	0xbdcedb09	-0.101003714
255	0x3ee7ac31	0.4524856

network.0.bias f4 [64]
0	0x3e8198f5	0.2531201
1	0x3e152216	0.14563784
2	0x3e5fc86b	0.21853797
3	0xbd5d7c01	-0.054073337
4	0x3dd95e2f	0.10613667
5	0x3e02e015	0.12780793
6	0x3e322ea2	0.17400602
7	0x3e0283f7	0.12745653
8	0xbd1db591	-0.038503233
9	0x3dc5bc4d	0.09655056
10	0x3e6bab70	0.23014617
11	0x3d6e68b8	0.058205336
12	0xbc89d867	-0.016826821
13	0x3e3924e0	0.18080473
14	0x3d7ffcf1	0.062497083
15	0x3e25532a	0.16145006
16	0xbc0f132b	-0.008732597
17	0x3e4ee0bb	0.20202915
18	0x3d8f2121	0.06988741
19	0xbcc538e8	-0.024074987
20	0xbcbdd488	-0.023172632
21	0xbda2724f	-0.07931959
22	0xb9650e79	-0.00021844533
23	0x3e730228	0.23731291
24	0x3e1c2848	0.15249741
25	0x3b607495	0.0034249176
26	0x3e6e19bd	0.23252006
27	0x3d499a97	0.049219694
28	0x3e987d03	0.29782876
29	0x3d712dd4	0.058881596
30	0x3e4f10c4	0.2022124
31	0x3d99ca58	0.07509297
32	0x3d00ff5d	0.031493533
33	0x3ebfca59	0.37459067
34	0x3e1b2918	0.15152395
35	0xbd8ffebb	-0.07031008
36	0x3e893002	0.2679444
37	0x3d4b8d84	0.049695507
38	0x3dadc5c3	0.08484986
39	0x3d3c926a	0.04603807
40	0x3ea27fde	0.3173818
41	0x3ea212c2	0.31654936
42	0x3e964ed3	0.29357013
43	0x3ebe1106	0.37122363
44	0x3e5bb663	0.21456294
45	0x3e63bdcb	0.22240369
46	0x3e07e79b	0.13271944
47	0x3d493bb6	0.04912921
48	0x3e2d211a	0.16907158
49	0x3da4360e	0.080181226
50	0xbb9bea30	-0.004758142
51	0x3e7b1da8	0.24523032
52	0x3e0dc4b1	0.13844563
53	0x3e9eefa4	0.31042206
54	0x3daeb062	0.08529736
55	0x3e847a36	0.2587449
56	0x3e7c3d09	0.24632658
57	0x3e941948	0.28925538
58	0x3d8ce927	0.06880408
59	0x3e89d00b	0.26916537
60	0xbd2c60b6	-0.04208442
61	0x3ea121bb	0.31471047
62	0x3ea3dac8	0.32002854
63	0x3ed51b1d	0.41622248

network.2.weight f4 [64, 64]
0	0xbc0715b1	-0.008244918
1	0x3ea7faac	0.32808435
2	0x3dd06baf	0.10176789
3	0x3ec8dc0a	0.39230376
4	0x3e4bf65d	0.19918199
5	0x3dd1201f	0.10211205
6	0x3d24c41c	0.040226087
7	0x3eab0e1a	0.33409196
8	0xbd63a72f	-0.05557936
9	0x3e831086	0.25598544
10	0x3dd872f2	0.10568799
11	0x3e86628c	0.2624706
12	0x3e59d68a	0.21273246
13	0xbc0a02d3	-0.008423525
14	0xbe8595f9	-0.26090983
15	0xbd85c55e	-0.065317854
16	0x3e08d94a	0.13364139
17	0xbe61acb7	-0.22038542
18	0x3e57b715	0.21065934
19	0x3e0da20a	0.13831344
20	0x3c334a39	0.010942989
21	0x3c355c7a	0.011069411
22	0x3efdc26a	0.4956239
23	0xbbd162af	-0.006389938
24	0xbe00f214	-0.12592345
25	0x3eb118bb	0.3458918
26	0x3e5a3317	0.21308552
27	0x3e79fd9f	0.24413155
28	0x3ec2d69a	0.38054353
29	0x3e70b833	0.23507766
30	0x3d9be30f	0.07611667
31	0x3e80f26d	0.25184956
32	0x3d2d4160	0.042298675
33	0x3ec136d8	0.37737155
34	0x3ee332eb	0.44374785
35	0x3f362c6b	0.71161526
36	0x3e9d7454	0.30752814
37	0xbda2fb07	-0.07958036
38	0x3d4cdd6a	0.050015844
39	0x3c84e742	0.016223554
40	0xbda6dac4	-0.08147195
41	0xbe2b0ffd	-0.16705318
42	0x3dee245c	0.11628029
43	0x3e4a37dc	0.19747871
44	0x3d1685d5	0.036748726
45	0xbc273ddf	-0.010207622
46	0x3e712624	0.23549706
47	0x3eebb00c	0.4603275
48	0x3db02c7f	0.08602237
49	0xbe4be21c	-0.19910473
50	0x3e5871de	0.21137187
51	0xbde635be	-0.11240719
52	0x3e02392d	0.12717123
53	0xbe463fac	-0.19360226
54	0x3eec8ac3	0.46199617
55	0xbf0921a6	-0.5356697
56	0xbd736d25	-0.05943026
57	0x3e987e98	0.29784083
58	0x3e1e87c8	0.15481484
59	0xbe805427	-0.25064203
60	0x3ecd9443	0.40152177
61	0xbec33ed1	-0.38133863
62	0xbde623d0	-0.112372994
63	0x3e8453c5	0.2584516
64	0xbd815537	-0.063150816
65	0x3e425915	0.18979295
66	0x3e9c2db0	0.30503607
67	0x3eafe9c1	0.34358028
68	0x3dc4d5ef	0.09611117
69	0x3ea97245	0.33094993
70	0xbeb3e090	-0.35132265
71	0x3f11f0dc	0.5700815
72	0xbc975a13	-0.018475568
73	0x3ec2f3e3	0.38076696
74	0x3e8476f9	0.2587202
75	0x3eb459d5	0.35224786
76	0x3e453ddd	0.1926188
77	0xbdb03b87	-0.08605104
78	0xbe60b391	-0.21943499
79	0x3e933ed7	0.2875888
80	0x3eae1ff3	0.3400875
81	0x3efe96f2	0.49724537
82	0x3c6b1b7c	0.0143498145
83	0x3eb90e23	0.36143598
84	0x3ed5ff6a	0.41796428
85	0xbe13d389	-0.14436163
86	0x3e947014	0.2899176
87	0xbebd4c3f	-0.36972234
88	0xbe9c0d6c	-0.3047899
89	0x3eb6706f	0.35632655
90	0x3efa7f94	0.4892546
91	0x3e55844a	0.20851246
92	0xbd1240bc	-0.035706267
93	0x3ebbb13e	0.36658663
94	0x3e889971	0.26679567
95	0xbd4a0ba5	-0.04932751
96	0xbdc9c5bc	-0.09852168
97	0xbebf1b6e	-0.37325615
98	0x3d509956	0.050927483
99	0x3ee68447	0.45022795
100	0x3ee07139	0.43836382
101	0x3d84bf4b	0.06481799
102	0xbdca728a	-0.09885128
103	0x3d02e795	0.031959135
104	0xbe965cd5	-0.293677
105	0xbe720897	-0.2363609
106	0x3efd866a	0.49516612
107	0x3ebdc020	0.37060642
108	0xbe1a268e	-0.1505377
109	0x3db7f768	0.08982736
110	0xbe66138f	-0.22468399
111	0x3e396c50	0.18107724
112	0x3ec2b6ad	0.38029996
113	0xbdbefd44	-0.0932565
114	0xbe2c82b4	-0.16846734
115	0x3e03a609	0.12856306
116	0xbded07b9	-0.115737386
117	0x3e857808	0.2606814
118	0x3deeaaca	0.11653669
119	0xbf0ede6c	-0.5580814
120	0xbe8dd2ec	-0.27699983
121	0x3d07066e	0.032965116
122	0xbe1c75c2	-0.15279296
123	0xbe1a3886	-0.15060624
124	0xbd4ed262	-0.050493605
125	0xbc1f0e58	-0.00970801
126	0x3e24d303	0.1609612
127	0xbe107d2c	-0.1411025
128	0xbe216241	-0.15760137
129	0x3d0ab0de	0.03386008
130	0xbd9abbad	-0.075553276
131	0xbdd4319a	-0.10361023
132	0xbcb2e223	-0.021836346
133	0x3ee2aa01	0.44270328
134	0x3e92c6cc	0.28667295
135	0x3ee45ed6	0.44603604
136	0x3e0578f8	0.13034427
137	0xbe807149	-0.2508643
138	0xbc76926f	-0.015049561
139	0x3e620f7a	0.22076216
140	0xbeb87263	-0.3602477
141	0x3e4581f7	0.19287859
142	0x3dffb724	0.12486103
143	0x3d8e71fc	0.069553345
144	0xbd6638de	-0.056206577
145	0xbe297eb5	-0.16552241
146	0x3dae403b	0.08508345
147	0x3e8fcf99	0.28088072
148	0x3df300fe	0.118654236
149	0x3e29017d	0.16504474
150	0x3f156a75	0.58365566
151	0xbed61cf4	-0.41818964
152	0x3e6291eb	0.22125976
153	0x3ebb02f5	0.36525694
154	0x3e3ee0b3	0.18640403
155	0x3de4cb35	0.11171571
156	0x3e3de5a8	0.18544638
157	0x3eb60448	0.3555014
158	0x3ebab3ac	0.36465204
159	0x3db0e4ee	0.08637415
160	0xbe5d968a	-0.21639457
161	0x393eb315	0.00018186525
162	0x3e7c7c52	0.246568
163	0x3e846570	0.2585864
164	0x3e3bd2c8	0.18342125
165	0xbdd640bf	-0.10461568
166	0x3d0e6ec2	0.034773596
167	0xbea756c6	-0.3268339
168	0x3e568797	0.20950161
169	0x3e8b4471	0.27200654
170	0xbe140e78	-0.14458644
171	0xbde62823	-0.11238124
172	0xbbc43e5a	-0.005988878
173	0x3ed2bb94	0.41158736
174	0x3e2c034c	0.16798133
175	0x3eb27153	0.34852085
176	0x3dff6546	0.12470488
177	0xbe7eaae4	-0.24869877
178	0xbe0725f6	-0.13198075
179	0x3cd899f9	0.026440607
180	0x3e8abfaf	0.27099368
181	0xbd7fffe2	-0.06249989
182	0x3e9d14cb	0.30679926
183	0xbe978d6d	-0.29600087
184	0xbd59af84	-0.0531459
185	0x3edcce4a	0.43126136
186	0xbd6e4cef	-0.05817884
187	0xbed8f118	-0.4237144
188	0x3d0a4c63	0.033764254
189	0xbe45774f	-0.19283794
190	0x3e986c27	0.29770014
191	0x3ec4074f	0.38286826
192	0x3e9dbad8	0.30806613
193	0x3d596ad9	0.053080413
194	0x3e41d789	0.18929876
195	0x3c2c3b34	0.010512162
196	0x3ea4c665	0.32182613
197	0xbcded4ca	-0.027201075
198	0x3e987891	0.29779485
199	0x3e8d65c4	0.27616704
200	0x3ec663f9	0.38748148
201	0x3e34d8e4	0.17660862
202	0xbe3f36a4	-0.18673187
203	0xbce498bf	-0.027904866
204	0x3ca3be0a	0.019988079
205	0xbdb2bbb6	-0.08727209
206	0xbb0be9e5	-0.0021349129
207	0x3e6c51ce	0.23078081
208	0x3dcc8818	0.09986895
209	0x3db38b01	0.08766747
210	0x3e1a6a06	0.15079507
211	0x3e639a1f	0.22226761
212	0x3f1ae7ef	0.6051015
213	0x3e088fb4	0.13336068
214	0x3f367f8d	0.7128838
215	0x3ed2e0f2	0.41187245
216	0xbeecbb69	-0.46236733
217	0x3e602eb7	0.2189282
218	0x3d974c3e	0.07387589
219	0xbc184137	-0.009292892
220	0x3d069d41	0.032864813
221	0xbe89e95a	-0.26935846
222	0x3ed7ec16	0.42172307
223	0xbd1691b3	-0.036760043
224	0xbe41d2fe	-0.18928143
225	0xbdac1ac7	-0.08403545
226	0x3f109937	0.5648379
227	0x3f11b778	0.56920576
228	0xbe5be3fd	-0.2147369
229	0xbe90ecb0	-0.28305578
230	0x3dfd7014	0.12374893
231	0x3e973a8a	0.2953685
232	0x3ecabe5b	0.39598355
233	0xbdafbee0	-0.085813284
234	0x3e058954	0.13040668
235	0x3e683706	0.2267724
236	0x3d87e56f	0.06635558
237	0x3f099881	0.5374833
238	0xbaf77186	-0.0018878437
239	0x3e8241fd	0.2544097
240	0xbd0341b0	-0.032045066
241	0x3e712b94	0.2355178
242	0xbd414070	-0.047180593
243	0x3e69548a	0.22786155
244	0x3ab4a6de	0.001378264
245	0xbe2bd7ff	-0.16781615
246	0x3e9df6b3	0.3085228
247	0xbed78744	-0.42095387
248	0x3e0ad987	0.13559543
249	0x3d89aa1e	0.067219004
250	0x3ec285ca	0.37992698
251	0xbe35eb88	-0.1776563
252	0x3eae426e	0.34035057
253	0xbec6ceb6	-0.38829583
254	0xbe26edd5	-0.16301663
255	0x3d7f23a1	0.062289838

network.2.bias f4 [64]
0	0x3e1619ea	0.14658323
1	0x3d2397f6	0.039939843
2	0x3d615e2c	0.05502145
3	0x3d92ecfd	0.07174108
4	0x3e4ffc9b	0.20311205
5	0x3e037135	0.12836154
6	0x3d211d92	0.03933484
7	0xbd674398	-0.056460947
8	0xbc90ed9a	-0.017691422
9	0x3e102d90	0.1407988
10	0xbd8477b1	-0.06468142
11	0x3d3aec68	0.04563561
12	0x3e5e9b7e	0.21739003
13	0x3e111e80	0.14171791
14	0xbb3d67d3	-0.0028900995
15	0xbcefa49a	-0.029253293
16	0x3d92d0a7	0.071687035
17	0x3deae5b1	0.114695914
18	0xbdb46dfe	-0.08810042
19	0x3e0b0d90	0.13579392
20	0x3de891a0	0.11355901
21	0x3ce33b9e	0.027738389
22	0x3d0a7659	0.03380427
23	0x3cdff5a4	0.02733881
24	0xbd29bf92	-0.04144246
25	0xbc9dd213	-0.01926521
26	0x3e87a410	0.26492357
27	0x3c2e7133	0.010647106
28	0x3e450d5d	0.19243379
29	0x3d5f0405	0.054447193
30	0x3cd79132	0.026314352
31	0xbe06ad78	-0.1315211
32	0x3e048f3a	0.12945262
33	0x3e091083	0.13385205
34	0x3d8cf9a2	0.06883551
35	0x3e811ec5	0.25218788
36	0x3d0379bf	0.032098528
37	0xbdb84c84	-0.08998969
38	0x3c0884ab	0.008332412
39	0x3e7334aa	0.23750558
40	0xbd75e22c	-0.060030147
41	0x3cb1da96	0.021710675
42	0x3cacf4bf	0.021112798
43	0x3e4dbf0b	0.20092408
44	0x3d3fd6ce	0.046835713
45	0x3e7a401f	0.24438523
46	0x3cca8062	0.02471942
47	0x3c9b8299	0.018983172
48	0x3c1c07fb	0.009523387
49	0x3dbe1c2e	0.092827186
50	0x3e249b98	0.1607498
51	0x3e7dafda	0.24774113
52	0xbc4d1b68	-0.012518741
53	0xbcaf2ba9	-0.021383123
54	0xbdb8b861	-0.090195425
55	0x3e1a2db7	0.15056501
56	0x3cccd30c	0.025002979
57	0x3e49f779	0.1972331
58	0x3c2a7cf0	0.010405764
59	0x3e841f1b	0.25804982
60	0x3e868aca	0.26277763
61	0xbd20730b	-0.039172214
62	0x3d5d430a	0.05401901
63	0x3e590f34	0.21197206

network.4.weight f4 [6, 64]
0	0xbe8e5105	-0.27796188
1	0xbe2f20c8	-0.17102349
2	0xbe531de0	-0.20616865
3	0xbe4a1078	-0.19732845
4	0x3f00ba42	0.50284207
5	0x3dec6d90	0.11544335
6	0x3e8a3512	0.26993614
7	0x3c23d980	0.0100005865
8	0xbe8636d2	-0.262137
9	0x3ef68151	0.48145536
10	0xbe8ba0c0	-0.2727108
11	0xbed07f63	-0.40722188
12	0x3f076646	0.5289043
13	0xbdee759f	-0.11643528
14	0xbee77db0	-0.4521308
15	0x3e3c3d74	0.18382818
16	0xbd3527e6	-0.044227503
17	0x3f03c40c	0.5147102
18	0xbe1080e3	-0.14111666
19	0xbd1002ab	-0.035158794
20	0xbcb2d71b	-0.021831086
21	0xbe28f2e4	-0.16498905
22	0xbef6434e	-0.48098224
23	0xbe807f86	-0.25097293
24	0x3e3f1dc7	0.18663703
25	0xbe155efc	-0.14587015
26	0x3e2336f3	0.1593893
27	0xbdbd5184	-0.092440635
28	0x3f04e48e	0.51911247
29	0x3ebee18c	0.37281454
30	0x3e69ce22	0.2283254
31	0xbe2a7775	-0.16647132
32	0xbf1519de	-0.58242595
33	0xbeb12568	-0.3459885
34	0xbc53b778	-0.01292216
35	0x3e685852	0.22689942
36	0x3da090c1	0.078401096
37	0xbe82690a	-0.25470763
38	0xbf2ccd82	-0.6750108
39	0x3e27f8fb	0.16403572
40	0x3e4a17c2	0.19735625
41	0x3eec8a33	0.46199188
42	0xbd488f1e	-0.048964612
43	0x3ed8d9f0	0.42353773
44	0x3e013244	0.12616831
45	0x3ec2da55	0.380572
46	0x3d9e5b3c	0.07732245
47	0x3e7d3c73	0.24730091
48	0xbee735e0	-0.4515829
49	0x3f10d3c6	0.5657314
50	0x3f045ae8	0.5170121
51	0x3efef303	0.49794778
52	0x3e3dab40	0.18522358
53	0x3e8d1e99	0.27562407
54	0xbe1162f8	-0.1419791
55	0x3e0ea181	0.13928796
56	0xbd8e161d	-0.069378115
57	0xbd157476	-0.03648802
58	0x3df74b06	0.120748565
59	0x3f03f8ed	0.51551706
60	0x3e577bf7	0.21043383
61	0xbe2ba4c9	-0.1676208
62	0xbef90315	-0.48635164
63	0x3e6c5b91	0.23081805
64	0xbefe3b53	-0.49654636
65	0xbdb9a8e4	-0.090654165
66	0xbdced728	-0.100996315
67	0xbe95f804	-0.29290783
68	0x3ecece61	0.4039183
69	0x3ecdca20	0.40193272
70	0xbebb42b6	-0.36574334
71	0xbe35b2b4	-0.17743951
72	0xbd3a4520	-0.04547608
73	0x3d273ec3	0.04083134
74	0x3ca97a38	0.020688161
75	0xbde79168	-0.11307031
76	0x3e3f68f0	0.18692374
77	0x3f0878a4	0.53309083
78	0xbe233943	-0.15939812
79	0x3c2f6420	0.010705024
80	0xbe67c4b0	-0.22633624
81	0xbed9c65a	-0.42534143
82	0xbcc74fb7	-0.024330003
83	0x3ece00ad	0.4023489
84	0xbea453b6	-0.32095116
85	0x3e242b96	0.16032252
86	0xbec2dfc1	-0.38061336
87	0xbeff0fc6	-0.49816722
88	0x3e22c0ad	0.15893812
89	0x3d7da8d8	0.0619286
90	0x3eac1796	0.33611745
91	0x3d001127	0.031266358
92	0x3f0a08ae	0.53919494
93	0x3e67ce41	0.22637273
94	0x3aaa4b00	0.0012992322
95	0xbeaec96d	-0.3413805
96	0x3ec25b35	0.3796021
97	0x3ef514f5	0.4786755
98	0xbd78806f	-0.06066936
99	0x3f12061c	0.5704057
100	0xbf09bc8d	-0.5380333
101	0x3d91640a	0.07099159
102	0x3ea2a906	0.3176958
103	0x3ec2e43b	0.3806475
104	0x3cd71506	0.026255142
105	0xbe93325f	-0.28749368
106	0xbe88f314	-0.26747954
107	0x3ed5af48	0.4173529
108	0xbed81a3f	-0.42207524
109	0x3ea164f1	0.31522325
110	0x3ca0ea00	0.01964283
111	0xbe258144	-0.16162592
112	0xbe8a6c8b	-0.27035937
113	0xbc9785bd	-0.018496389
114	0x3efe547a	0.49673826
115	0x3eacb75b	0.3373364
116	0x3e27adf6	0.16374955
117	0x3d86a7a3	0.06574943
118	0xbe8588be	-0.26080889
119	0xbeb36706	-0.35039538
120	0xbed99577	-0.42496845
121	0x3f085469	0.532538
122	0x3e87379b	0.2640961
123	0x3dacb5d9	0.08433122
124	0x3e86ef2a	0.26354343
125	0xbdd5ca3a	-0.10438962
126	0x3e0273c6	0.12739477
127	0x3ebc0396	0.36721486
128	0xbd8f5a86	-0.06999688
129	0xbeb1cabd	-0.3472499
130	0x3da7cbff	0.08193206
131	0xbe95cb08	-0.29256463
132	0x3e99596b	0.29951033
133	0x3e9bb54d	0.3041176
134	0xbef365a4	-0.47538483
135	0x3c3d19a0	0.011541754
136	0xbe0eba28	-0.139382
137	0xbee5ec82	-0.44907004
138	0x3ddfcef5	0.10928146
139	0x3e5de2b8	0.21668518
140	0xbe033130	-0.12811732
141	0xbd8f81f7	-0.07007211
142	0xbd64b1e6	-0.05583372
143	0x3d718810	0.05896765
144	0x3e101cad	0.14073439
145	0x3ee30313	0.44338283
146	0x3d8e91d1	0.06961406
147	0xbeac0bd2	-0.33602768
148	0x3f0b7bb4	0.5448563
149	0xbf309184	-0.6897204
150	0xbef2cddd	-0.47422686
151	0xbd80c10f	-0.06286823
152	0xbe012cd9	-0.12614764
153	0xbe82b12a	-0.2552579
154	0x3f08c6ae	0.5342816
155	0xbe80d700	-0.25164032
156	0x3e9f0e03	0.31065378
157	0x3d8541a9	0.06506664
158	0x3db87130	0.09005964
159	0xbd18d377	-0.037311044
160	0x3e09121b	0.13385813
161	0xbe6de7ec	-0.23233002
162	0xbf0e42d1	-0.55570704
163	0x3ec9036a	0.39260417
164	0x3dfc8285	0.12329582
165	0xbe1caf8b	-0.1530134
166	0xbec3d205	-0.3824617
167	0x3ed32b52	0.41243988
168	0x3df95c79	0.12175841
169	0xbeed626b	-0.4636415
170	0xbe67fc4f	-0.22654842
171	0x3e96c3d5	0.29446283
172	0x3ea30194	0.31837142
173	0x3e1289ec	0.14310426
174	0x3d0e34d0	0.034718335
175	0x3e2e88a8	0.17044318
176	0xbc33bdfc	-0.010970589
177	0x3d91f5b9	0.07126946
178	0x3e1de566	0.1541954
179	0xbdd5c5c7	-0.10438114
180	0x3e02a4d2	0.12758186
181	0xbd362396	-0.04446753
182	0xbebb8d59	-0.36631277
183	0x3d7f9e5c	0.062406883
184	0xbe7558f2	-0.23959711
185	0x3ebd659c	0.36991584
186	0x3e49663a	0.19667903
187	0x3f12123f	0.5705909
188	0x3f198740	0.59972
189	0x3db6b284	0.08920768
190	0x3e83faa5	0.25777164
191	0x3d30e9ec	0.043191835
192	0xbed5843f	-0.41702458
193	0xbee7e9f8	-0.45295691
194	0xbe947a2f	-0.2899947
195	0x3ddf958c	0.10917196
196	0x3e1d50db	0.15362875
197	0xbeabd183	-0.33558282
198	0x3e029fee	0.12756321
199	0xbe2aeae2	-0.16691163
200	0xbcc5abe0	-0.024129808
201	0xbe1c3c10	-0.15257287
202	0xbe4fda3e	-0.20298097
203	0x3ecc6a15	0.39924684
204	0x3e6183dd	0.22022958
205	0x3f0b596e	0.54433334
206	0xbec817fd	-0.39080802
207	0x3e195518	0.14973867
208	0xbc15f717	-0.009153149
209	0x3e6121e7	0.21985589
210	0xbd4eabb6	-0.050456725
211	0x3daf27e2	0.08552529
212	0x3ef9d732	0.48796993
213	0xbf070bcf	-0.52752393
214	0x3ea3382f	0.31878802
215	0xbe908cce	-0.28232425
216	0xbe5a9ca4	-0.21348816
217	0x3e8ecc0d	0.27890053
218	0x3ea84472	0.3286472
219	0xbc9e27b8	-0.019306049
220	0x3ef66abd	0.4812831
221	0xbf25f683	-0.6482927
222	0x3e9a9f43	0.30199632
223	0x3e870e1c	0.26377952
224	0xbf0de555	-0.5542806
225	0x3eabb9ca	0.33540183
226	0xbd25bdab	-0.040464085
227	0x3d7d7b8f	0.061885413
228	0xbed8662e	-0.42265457
229	0xbe2999f4	-0.16562635
230	0x3e2ffcf0	0.17186332
231	0xbd15f811	-0.036613528
232	0xbe0c717a	-0.13715163
233	0xbe615985	-0.22006805
234	0x3d0d888c	0.03455405
235	0x3f05c227	0.5224938
236	0xbf227f0c	-0.6347511
237	0x3eaab43a	0.33340627
238	0x3e995579	0.29948023
239	0x3d8290a0	0.06375241
240	0xbf233f97	-0.63768905
241	0x3df8a287	0.12140375
242	0x3ebb05db	0.36527905
243	0x3f1dd390	0.61650944
244	0x3e9a88bf	0.30182454
245	0x3dd66c37	0.10469859
246	0xbedd37bc	-0.43206584
247	0x3e86d41c	0.26333702
248	0xbebfbfde	-0.3745107
249	0x3d7ba917	0.061440554
250	0x3e4718de	0.1944308
251	0x3e2252ca	0.15851894
252	0xbe17fc01	-0.14842226
253	0x3e60bdbe	0.21947381
254	0xbeb9b190	-0.36268282
255	0x3f1c08a4	0.60950685

network.4.bias f4 [6]
0	0x3e3e5e4d	0.1859066
1	0x3dcdcca3	0.10048797
2	0x3e4b5cfc	0.1985969
3	0x3e19c333	0.15015869
4	0xbd01008e	-0.03149467
5	0x3dccf1d9	0.10007066
